Test Inertial Network/imu_model_medium.pth (torch, 431554 bytes, 12 tensors)

bilstm.weight_ih_l0 f4 [400, 6]
0.27671131 -0.013370612 0.20229758 -0.44264057 -0.08187854 0.5139601 -0.4546616 -0.0034709831
0.047517452 0.23516326 -0.16223155 0.19990514 -0.055451397 0.0046528378 0.13409117 -0.05079473
-0.13847451 -0.03633297 0.029176135 0.38945466 -0.05955253 -0.29762435 -0.38506207 -0.06306172
-0.03476502 -0.14239147 -0.0690655 -0.40566173 -0.039780427 -0.29048154 0.2096845 0.10863605
-0.21231714 -0.053339776 0.3535711 0.096838474 -0.16230385 -0.16473849 0.030704845 0.02942001
0.042342592 0.42809868 0.0003939665 -0.12668192 0.20132276 0.23504761 -0.048287686 -0.52505577
-0.16651429 0.17259938 -0.39868867 -0.27928615 0.52632433 0.22723626 -0.12972459 0.14079751
0.3543081 0.12546848 -0.36964923 -0.32397655 0.050925527 -0.23344669 0.15695669 0.3579134
0.41017804 -0.231358 -0.13364549 0.11223465 0.16576211 -0.16431591 0.25020623 -0.20477
0.1894841 0.06327574 -0.052612312 0.15905203 -0.18631202 0.1950559 -0.10755385 0.034803197
-0.4977157 -0.4465002 0.008895746 0.45269057 -0.1894775 0.13096718 0.25915578 0.14491443
-0.2675573 0.041445877 -0.039205965 0.22503655 0.078747265 -0.15174918 0.33921295 0.56559694
0.41258767 -0.24046633 0.27539757 -0.7089715 -0.1617544 0.47186923 -0.15067571 0.33111912
-0.04196391 -0.26408362 0.15227307 0.04181724 0.2718725 0.18713793 0.006906138 -0.19742242
0.053441647 0.1277862 0.0744862 0.07153998 0.027584141 -0.16346109 0.004044921 0.40976658
-0.26290664 0.0008128069 -0.20477426 -0.36192936 0.33933184 0.25815704 0.13528387 -0.41846213
0.4022668 0.06715603 0.19762827 0.022451403 -0.22890818 -0.03940432 -0.10816299 -0.11943694
-0.35010505 -0.008052517 0.34165162 -0.24397787 0.4850136 -0.22312596 0.11025307 0.5435998
-0.012297294 -0.21773218 0.17853034 0.1646211 -0.67558867 -0.39178714 -0.19343388 0.23567174
0.0010705047 -0.6729425 -0.026955161 0.45729044 -0.13304423 0.21401973 0.24700694 -0.2478533
0.18745662 0.47795218 0.22238058 -0.32126474 -0.08761842 -0.2109865 0.43177807 -0.22879314
-0.16740303 0.4699471 0.087763354 -0.45783412 -0.76964194 0.3630649 0.17027871 0.24258883
0.11215601 -0.14294736 0.29314947 -0.10236537 0.27497515 -0.07121325 0.06673448 -0.5201612
-0.22031893 0.8667987 -0.08093506 0.031929743 0.21923141 -0.19331884 -0.35101676 -0.11713813
0.20582287 -0.093988426 0.036667585 -0.16066778 0.08676798 0.42159042 -0.20309287 0.2744506
-0.33560374 -0.3195362 0.4619352 0.096806996 0.19752727 -0.20650074 0.5269422 0.23888421
0.8500441 -0.011446994 0.009406898 -0.025771597 -0.18073305 -0.13967252 0.4234639 -0.012205741
0.20586185 -0.15356871 -0.20850718 -0.6037824 -0.8968615 0.6365742 0.039889567 -0.14079428
0.0012499709 -0.6607997 0.16723423 0.31153128 -0.0023154493 0.1296349 -0.18584794 -0.30081958
-0.3670658 -0.041918825 -0.14838485 0.16553237 -0.13420883 -0.12509523 0.12126772 0.24309713
-0.20211081 0.22621062 0.10598137 -0.14831094 0.33961824 0.17108698 -0.15146543 -0.22085717
0.06391355 -0.54967695 -0.0023936422 0.44237602 0.044972077 0.27390254 0.21135409 0.048415124
00000000: 1bad 8d3e 6910 5bbc 1927 4f3e c9a1 e2be
00000010: f0af a7bd e492 033f 68c9 e8be 6f79 63bb
00000020: a9a1 423d a3ce 703e 0720 26be efb3 4c3e
00000030: 0121 63bd d576 983b 324f 093e 230e 50bd
00000040: 43cc 0dbe e1d1 14bd ca02 ef3c 9a66 c73e
00000050: 5bed 73bd 3862 98be db26 c5be 8126 81bd
00000060: c465 0ebd 12cf 11be 3672 8dbd e5b2 cfbe
00000070: cdf0 22bd ffb9 94be 89b7 563e 947c de3d
00000080: aa69 59be cf7a 5abd 4507 b53e 4053 c63d
00000090: fb32 26be 35b1 28be ba88 fb3c 3c02 f13c
000000a0: 6d6f 2d3d c02f db3e 4a8d ce39 e8b8 01be
000000b0: 8e27 4e3e 52b0 703e 4fc9 45bd 0e6a 06bf
000000c0: b982 2abe e4bd 303e ec20 ccbe 98fe 8ebe
000000d0: 31bd 063f 9fb0 683e 86d6 04be 392d 103e
000000e0: df67 b53e cf7a 003e aa42 bdbe 41e0 a5be
000000f0: 4997 503d a60c 6fbe 41b9 203e 6d40 b73e
00000100: db02 d23e 1de9 6cbe 5dda 08be 48db e53d
00000110: 8bbd 293e 6e42 28be 081b 803e 3aaf 51be
00000120: 1f08 423e b696 813d 0280 57bd 89de 223e
00000130: 94c8 3ebe bcbc 473e 3145 dcbd cc8d 0e3d
00000140: 98d4 febe ad9b e4be 77bf 113c 0fc7 e73e
00000150: 6406 42be 431c 063e 11b0 843e 7364 143e
00000160: 45fd 88be 27c3 293d 6f96 20bd fb6f 663e
00000170: 3f46 a13d 2364 1bbe 52ad ad3e f6ca 103f
00000180: b13e d33e ce3c 76be e900 8d3e 287f 35bf
00000190: f2a2 25be d898 f13e bc4a 1abe 7288 a93e
000001a0: 59e2 2bbd f835 87be 79ed 1b3e 8e48 2b3d
000001b0: df32 8b3e 16a1 3f3e e24c e23b 1a29 4abe
000001c0: a1e5 5a3d 63da 023e 398c 983d 8e83 923d
000001d0: 23f8 e13c 5862 27be 428b 843b edcc d13e
000001e0: b39b 86be 8c12 553a 58b0 51be ce4e b9be
000001f0: e7bc ad3e 292d 843e db87 0a3e ab40 d6be
00000200: eaf5 cd3e 1a89 893d 115f 4a3e 01ec b73c
00000210: e866 6abe 6d66 21bd 8f84 ddbd 5b9b f4bd
00000220: f840 b3be b4ee 03bc f6ec ae3e 56d5 79be
00000230: b453 f83e 227b 64be 5dcc e13d 5b29 0b3f
00000240: 977a 49bc 2ff5 5ebe a8d0 363e 6f92 283e
00000250: 61f3 2cbf 5398 c8be 8813 46be ef53 713e
00000260: 2d50 8c3a f645 2cbf 12d1 dcbc f921 ea3e
00000270: bf3c 08be fd27 5b3e 63ef 7c3e 41cd 7dbe
00000280: a1f4 3f3e 26b6 f43e bcb7 633e d07c a4be
00000290: 4971 b3bd d80c 58be 0412 dd3e c048 6abe
000002a0: b36b 2bbe e89c f03e 46bd b33d 3c69 eabe
000002b0: 4107 45bf a4e3 b93e 8b5d 2e3e 3569 783e
000002c0: 0db2 e53d cb60 12be b017 963e efa4 d1bd
000002d0: 8bc9 8c3e 41d8 91bd 16ac 883d 4929 05bf
000002e0: 499b 61be 85e6 5d3f 48c1 a5bd c3c8 023d
000002f0: 337e 603e 60f5 45be 78b8 b3be 1ee6 efbd
00000300: 3bc3 523e 017d c0bd c030 163d 1886 24be
00000310: 69b3 b13d b3da d73e 94f7 4fbe ca84 8c3e
00000320: 41d4 abbe 409a a3be c582 ec3e bf42 c63d
00000330: 9744 4a3e ee74 53be afe5 063f 109e 743e
00000340: 7d9c 593f 2c8c 3bbc 641f 1a3c f51e d3bc
00000350: 1612 39be 5006 0fbe 43d0 d83e 97fa 47bc
00000360: 73cd 523e 1e41 1dbe e882 55be 7c91 1abf
00000370: b798 65bf 87f6 223f 3e63 233d 602c 10be
00000380: 10d6 a33a 2b2a 29bf 733f 2b3e 0781 9f3e
00000390: cbbe 17bb 03bf 043e ec4e 3ebe 0605 9abe
000003a0: 0cf0 bbbe 13b3 2bbd 33f2 17be 5181 293e
000003b0: 0a6e 09be f718 00be 365b f83d 74ee 783e
000003c0: 23f6 4ebe c2a3 673e c30c d93d d3de 17be
000003d0: 71e2 ad3e 6d31 2f3e c119 1bbe 6228 62be
000003e0: 1be5 823d a1b7 0cbf a7de 1cbb 1c7f e23e
000003f0: a434 383d f43c 8c3e 356d 583e f04e 463d

bilstm.weight_hh_l0 f4 [400, 100]
-0.3229602 -0.008866016 0.011920195 -0.19206497 -0.30094978 -0.1190551 0.48064634 0.24102822
0.11289739 -0.10871893 0.030457253 -0.10568091 -0.20444523 -0.15120563 -0.19582503 -0.07618775
-0.27367344 0.08931971 -0.145414 0.28833985 -0.059082665 -0.16814214 -0.21581168 -0.004297435
0.17490396 0.054554295 0.022220096 -0.66281724 -0.07729997 -0.2131696 -0.11738865 0.026676798
-0.058702067 0.09617295 -0.6889926 0.25932673 -0.2636185 0.044771194 0.18184057 -0.2200407
0.19662307 0.16218846 0.18300365 -0.026431326 -0.029056428 -0.14960378 -0.03803801 0.027261324
-0.37230536 -0.25436503 -0.5421194 -0.20563026 -0.24565272 0.08217138 0.37947738 -0.061977025
0.071044266 -0.32805923 -0.011469609 0.24426065 0.48325723 0.29998547 -0.037202645 0.26710278
-0.7873092 0.059815496 -0.3786129 0.40353546 -0.60927737 -0.008550432 -0.4110952 -0.014715455
0.29895836 0.11879831 0.22387433 0.24374376 0.04834973 -0.07445666 -0.08200356 -0.37518558
0.076323904 -0.11325097 -0.11575058 0.027080148 -0.2936252 -0.14999114 -0.024493985 0.19173783
-0.059746865 -0.13393277 0.023930103 -0.012551472 0.60260123 -0.16136634 0.065795355 -0.38888237
0.45128596 0.16489105 -0.25145552 0.6237183 0.17179503 -0.1859497 -0.3182192 0.069459885
0.08797419 0.17350745 0.22546908 0.064068556 -0.051559854 -0.14532906 -0.30332732 0.28375316
-0.13366114 -0.06912718 0.043610066 -0.2432079 0.13703069 0.33360776 -0.114188 0.033984333
0.0510298 0.07986486 -0.102490634 -0.10891911 -0.010833487 -0.26477528 -0.35592493 0.084023535
0.04505339 0.15281995 -0.31487224 0.03520165 0.16463703 -0.28203902 0.025090454 -0.28365675
0.1161662 -0.2924897 -0.19113894 0.06835253 0.519581 -0.12215882 -0.1498452 -0.19634598
0.5548091 -0.20458247 0.02199482 0.0626425 -0.14712575 -0.16184744 0.08018747 -0.08569058
-0.28638092 -0.22805144 0.32585084 -0.2350261 0.107413895 0.21921211 -0.13049825 -0.034722116
-0.026389625 0.11080226 -0.32974592 -0.038749043 0.23381871 0.027281338 -0.1524074 -0.09862938
0.014870661 -0.10892207 -0.19374678 -0.07214486 0.33572924 -0.12584448 -0.2068863 -0.253387
-0.2972516 -0.42395645 -0.1003815 0.058499638 -0.00022869185 0.25692835 -0.265594 0.24309823
0.1367642 0.022572912 -0.07216137 0.08883121 0.28423548 0.16122456 -0.085300095 -0.060961243
-0.40147415 0.07340151 0.024085345 0.13287419 -0.19524918 -0.24539587 0.2449185 0.09748958
0.425709 0.20223291 -0.03599395 0.06854273 -0.03603847 0.065253295 -0.081963524 0.08332472
-0.15167107 0.24194823 -0.031788368 -0.19904472 0.11136393 0.024038482 0.25495493 -0.025351634
0.13827653 -0.18552217 0.104746476 -0.023665935 0.3371031 0.07620454 0.08671572 0.15235926
-0.1953229 0.23872337 -0.008265831 0.34834984 -0.21940319 -0.0070356666 0.13566944 -0.08252413
0.23514366 -0.07551495 -0.13779566 -0.4790918 -0.18760139 -0.024574954 -0.14760043 -0.18343745
-0.16363095 0.13167891 0.20541634 0.031417277 -0.25219998 -0.07085914 -0.04312909 -0.117472306
0.01727582 0.19753845 0.31342313 0.19393113 0.17597373 0.032339506 -0.123805195 -0.22739032
00000000: 0a5b a5be c442 11bc ec4c 433c aeac 44be
00000010: 1716 9abe 29d3 f3bd 4717 f63e 1ad0 763e
00000020: bf36 e73d 08a8 debd 7d81 f93c 3c6f d8bd
00000030: 175a 51be a6d5 1abe 5b86 48be 5308 9cbd
00000040: ed1e 8cbe 41ed b63d 68e7 14be 48a1 933e
00000050: aa00 72bd 742d 2cbe bdfd 5cbe 7fd1 8cbb
00000060: 061a 333e 5374 5f3d eb06 b63c 64ae 29bf
00000070: 724f 9ebd 2249 5abe 7669 f0bd 4d89 da3c
00000080: 9471 70bd 53f6 c43d d261 30bf 79c6 843e
00000090: 01f9 86be 0062 373d 6a34 3a3e 5952 61be
000000a0: 8f57 493e bb14 263e 4f65 3b3e 8286 d8bc
000000b0: bf07 eebc bc31 19be bfcd 1bbd 2453 df3c
000000c0: cf9e bebe 223c 82be 56c8 0abf bd90 52be
000000d0: 638c 7bbe 7849 a83d dc4a c23e 9fdb 7dbd
000000e0: a87f 913d 61f7 a7be 07eb 3bbc 771f 7a3e
000000f0: 7e6d f73e b297 993e cd61 18bd b2c1 883e
00000100: 198d 49bf 1801 753d 8dd9 c1be 339c ce3e
00000110: 9af9 1bbf 1c17 0cbc 127b d2be 1719 71bc
00000120: 1211 993e 874c f33d 503f 653e f797 793e
00000130: 5e0a 463d bc7c 98bd 7cf1 a7bd 5318 c0be
00000140: b54f 9c3d 20f0 e7bd a40e edbd 30d7 dd3c
00000150: 0b56 96be 4797 19be 9ca7 c8bc ec56 443e
00000160: 21b9 74bd ac25 09be 1009 c43c b0a4 4dbc
00000170: 1344 1a3f 383d 25be b7bf 863d 971b c7be
00000180: f40e e73e 33d9 283e c7be 80be 01ac 1f3f
00000190: 09eb 2f3e 9969 3ebe a1ed a2be fc40 8e3d
000001a0: d02b b43d f0ab 313e 5ee1 663e 6036 833d
000001b0: 6d30 53bd 24d1 14be b84d 9bbe 1848 913e
000001c0: 77de 08be 8d92 8dbd 78a0 323d 7e0b 79be
000001d0: c651 0c3e a3ce aa3e 66db e9bd 2833 0b3d
000001e0: a004 513d 3090 a33d 9ce6 d1bd fb10 dfbd
000001f0: f07e 31bc a090 87be cb3b b6be 8814 ac3d
00000200: e789 383d d57c 1c3e ef36 a1be 9b2f 103d
00000210: 9c96 283e 6b67 90be 7f8a cd3c 753b 91be
00000220: 8be8 ed3d 36c1 95be edb9 43be 69fc 8b3d
00000230: 4303 053f 672e fabd 0571 19be ec0e 49be
00000240: f807 0e3f 117e 51be 7b2e b43c b64a 803d
00000250: 22a8 16be 56bb 25be 5439 a43d 8b7e afbd
00000260: 85a0 92be 5186 69be ecd5 a63e afaa 70be
00000270: d1fb db3d 2479 603e 55a1 05be c738 0ebd
00000280: 0e2f d8bc 4cec e23d 75d4 a8be 51b7 1ebd
00000290: 2c6e 6f3e 1d7d df3c af10 1cbe 33fe c9bd
000002a0: 13a4 733c 8912 dfbd 8e65 46be afc0 93bd
000002b0: b4e4 ab3e 60dd 00be 01da 53be f1bb 81be
000002c0: 5d31 98be d210 d9be d194 cdbd 519d 6f3d
000002d0: 00cd 6fb9 1d8c 833e f0fb 87be beee 783e
000002e0: ea0b 0c3e d4ea b83c 57c9 93bd 23ed b53d
000002f0: 5087 913e 0d18 253e d1b1 aebd 7fb2 79bd
00000300: 058e cdbe 8853 963d a14e c53c 2c10 083e
00000310: 67ef 47be 0e49 7bbe eacb 7a3e 9ea8 c73d
00000320: 88f6 d93e 2516 4f3e 646e 13bd 2160 8c3d
00000330: 139d 13bd 85a3 853d 7edc a7bd 27a6 aa3d
00000340: a94f 1bbe 47c1 773e 8534 02bd 61d2 4bbe
00000350: c612 e43d 5aec c43c 7489 823e 3bae cfbc
00000360: 5d98 0d3e 86f9 3dbe 5285 d63d 10df c1bc
00000370: c798 ac3e 2011 9c3d 0398 b13d 1104 1c3e
00000380: ba02 48be e673 743e 686d 07bc e95a b23e
00000390: 3bab 60be 738b e6bb eeec 0a3e 6902 a9bd
000003a0: 80c9 703e 95a7 9abd 4e1a 0dbe 854b f5be
000003b0: 941a 40be 6a51 c9bc 9124 17be 07d7 3bbe
000003c0: df8e 27be d6d6 063e a958 523e 67af 003d
000003d0: 5b20 81be 991e 91bd 21a8 30bd 5295 f0bd
000003e0: 0586 8d3c 8547 4a3e ff78 a03e e295 463e
000003f0: 7532 343e 6e76 043d 948d fdbd 02d9 68be

bilstm.bias_ih_l0 f4 [400]
0.060330607 0.0065542655 0.0070476276 0.036531955 0.030500488 -0.07851447 -0.011692562 -0.051786292
-0.013808835 0.034944966 0.0660662 0.021935672 0.1258957 0.0830886 -0.10596494 0.10198665
-0.014105523 0.11128005 -0.018988995 0.13271597 0.15979607 0.0054983655 0.06946968 0.09313338
0.11758916 0.06331169 0.13464856 0.09877172 0.025016567 -0.022151092 -0.004767717 -0.026186297
0.0093586575 0.031913474 0.1500769 0.006455348 0.004827796 -0.059758246 -0.02924794 -0.019180499
0.05240036 0.0050808666 -0.014241363 0.06888666 0.0065503074 0.01831799 -0.09640985 -0.055187438
0.0028887775 -0.010382603 -0.001156599 -0.03865883 -0.057079952 0.06904537 -0.040810574 -0.0033100415
-0.07229702 0.084713176 0.101681106 0.05578534 0.13655527 0.05205782 0.00019170482 -0.028652564
0.18399179 -0.03249185 0.14317226 0.14347713 0.116262205 0.036569312 -0.03646013 -0.0034363584
0.23508625 -0.012251183 0.044179328 0.13760185 -0.06776986 -0.013246736 -0.006357593 0.0041351635
0.028389841 -0.040427778 0.21927506 -0.07577444 -0.026506478 -0.09295609 -0.054898653 0.13585162
-0.016350452 0.04805477 0.08341863 0.14918244 0.14470933 0.010547979 0.07009068 0.101832286
-0.021708647 -0.016888632 0.00572905 0.14940202 0.19341782 0.19413811 0.017482085 0.11867583
0.049940147 0.0017534279 0.18833369 0.048278727 0.08965054 0.03692991 0.100406684 0.051134747
0.18310606 0.22997075 -0.04248981 0.1279732 0.007587821 0.061747037 0.06824831 0.23654744
0.13706228 0.063394144 0.14063121 0.14263508 0.09288411 0.14720052 0.21999931 0.11720797
0.052399747 0.053526234 0.06570131 0.03992485 -0.0068847667 0.15287063 0.15853226 0.041666266
0.044424146 0.0072247637 0.03007504 0.048686035 0.097203076 0.08754176 -0.051316 0.17440253
0.047211207 0.050991695 -0.02843501 0.017332323 -0.08215942 0.083216354 0.05427881 0.009333635
-0.043955535 0.17346509 -0.01416392 -0.0016278084 0.008927455 0.10334616 0.17582664 0.055369437
0.0034639584 0.21946836 -0.015693497 0.0714155 0.07387861 0.099595085 0.23561652 0.061993197
0.18819155 0.14212649 0.06203217 0.08304024 0.05416477 0.022926562 0.04214616 0.031992007
-0.10173572 0.025771985 0.1927194 0.11880832 0.114240594 0.033428118 0.1792072 0.039476413
0.095610484 -0.06161696 -0.02664584 0.01771909 0.06592946 0.12573518 0.13713326 0.1677609
0.14655958 0.07976761 0.08577962 0.109015696 0.0946328 0.083561465 0.04283402 -0.0011297105
0.013854595 0.04129124 -0.010638729 0.012627922 -0.011255911 -0.009676506 -0.056080565 -0.011415239
-0.004320023 -0.019932449 0.012069866 0.0033667474 -0.00017930276 0.0230419 0.022996858 0.005709605
-0.027098883 -0.028116936 0.0018468982 -0.04553786 0.040075663 -0.016930766 0.005157489 -0.0018755037
0.007164714 -0.025956025 0.01449305 0.030558852 -0.013211116 0.0007045201 0.014702501 -0.004801759
0.0027254948 0.008926352 -0.027079623 -0.029210497 -0.025040511 0.000290857 0.024649533 -0.055073004
-0.017745174 0.0025827999 0.02763195 0.03564118 0.028190529 -0.0069270493 0.009143407 0.025921779
0.021029396 0.018998345 0.018276267 -0.009055344 -0.008032355 -0.025586333 -0.0048622084 -0.002122237
00000000: 3a1d 773d 2ac5 d63b c9ef e63b 88a2 153d
00000010: 29dc f93c 32cc a0bd 2992 3fbc dd1d 54bd
00000020: 743e 62bc 7422 0f3d b74d 873d 70b2 b33c
00000030: cdea 003e 5b2a aa3d 2504 d9bd 60de d03d
00000040: da1a 67bc cbe6 e33d cf8e 9bbc b2e6 073e
00000050: 95a1 233e a22b b43b 1f46 8e3d b7bc be3d
00000060: 96d2 f03d 8fa9 813d 50e1 093e d448 ca3d
00000070: 8bef cc3c 3576 b5bc 823a 9cbb a584 d6bc
00000080: 0e55 193c b4b7 023d c2ad 193e 6287 d33b
00000090: 7d32 9e3b 10c5 74bd 6099 efbc 6c20 9dbc
000000a0: c3a1 563d 667d a63b 9b54 69bc 7314 8d3d
000000b0: f6a3 d63b 9c0f 963c 8772 c5bd 390c 62bd
000000c0: a551 3d3b cb1b 2abc 0699 97ba b958 1ebd
000000d0: abcc 69bd a967 8d3d fd28 27bd 48ed 58bb
000000e0: 7610 94bd 1a7e ad3d 2f3e d03d 2b7f 643d
000000f0: 25d5 0b3e 953a 553d 5f04 4939 c8b8 eabc
00000100: 5868 3c3e 2d16 05bd c09b 123e abeb 123e
00000110: e11a ee3d b4c9 153d 3857 15bd 8734 61bb
00000120: 73ba 703e 30b9 48bc 62f5 343d 80e7 0c3e
00000130: edca 8abd d608 59bc 5b53 d0bb 4480 873b
00000140: d091 e83c 9997 25bd a489 603e a12f 9bbd
00000150: 1d24 d9bc c35f bebd 69dd 60bd b01c 0b3e
00000160: 62f1 85bc 14d5 443d 63d7 aa3d 48c3 183e
00000170: af2e 143e 6ed1 2c3c b48b 8f3d 728d d03d
00000180: 55d6 b1bc 075a 8abc c1ba bb3b d8fc 183e
00000190: 520f 463e 24cc 463e 9736 8f3c 500c f33d
000001a0: 0a8e 4c3d 47d3 e53a 8cda 403e eabf 453d
000001b0: b49a b73d d143 173d 05a2 cd3d ab72 513d
000001c0: 2880 3b3e 747d 6b3e cc09 2ebd 680b 033e
000001d0: 42a3 f83b 76ea 7c3d c5c5 8b3d 7e39 723e
000001e0: 0e5a 0c3e cad4 813d a101 103e ee0e 123e
000001f0: 063a be3d bcbb 163e 8047 613e bb0a f03d
00000200: 1ea1 563d 533e 5b3d 698e 863d 3d88 233d
00000210: 9c99 e1bb 1e8a 1c3e 4856 223e 3faa 2a3d
00000220: 18f6 353d b6bd ec3b ee5f f63c 026b 473d
00000230: 6812 c73d 1849 b33d ba30 52bd 9496 323e
00000240: 8a60 413d abdc 503d 8af0 e8bc 84fc 8d3c
00000250: 3343 a8bd 566d aa3d 7553 5e3d 1aec 183c
00000260: b80a 34bd d5a0 313e c90f 68bc 305c d5ba
00000270: 7644 123c 27a7 d33d e60b 343e 10cb 623d
00000280: 9403 633b 50bc 603e a68f 80bc 4a42 923d
00000290: ab4d 973d 82f8 cb3d 7545 713e 94ec 7d3d
000002a0: 49b5 403e 9b89 113e 7215 7e3d 0011 aa3d
000002b0: e1db 5d3d 7cd0 bb3c 74a1 2c3d 0d0a 033d
000002c0: d15a d0bd c51f d33c 3c58 453e c751 f33d
000002d0: f9f6 e93d eceb 083d 1882 373e 05b2 213d
000002e0: 6ecf c33d 1162 7cbd 6048 dabc a027 913c
000002f0: 0606 873d b9c0 003e a96c 0c3e 83c9 2b3e
00000300: b713 163e 335d a33d 3aad af3d 9f43 df3d
00000310: d7ce c13d 4622 ab3d ba72 2f3d cb12 94ba
00000320: 62fe 623c 0121 293d 104e 2ebc 58e5 4e3c
00000330: b66a 38bc 358a 1ebc bcb4 65bd fc06 3bbc
00000340: fb8e 8dbb 6049 a3bc b0c0 453c a6a4 5c3b
00000350: 3803 3cb9 5ec2 bc3c e863 bc3c a317 bb3b
00000360: 7afe ddbc 7d55 e6bc 9f13 f23a e885 3abd
00000370: 6126 243d 64b2 8abc 2700 a93b 76d3 f5ba
00000380: fac5 ea3b bba1 d4bc 4274 6d3c 8f56 fa3c
00000390: 7073 58bc 8baf 383a c2e2 703c 1358 9dbb
000003a0: 379e 323b d53f 123c 16d6 ddbc da4a efbc
000003b0: c221 cdbc 2a7e 9839 d1ed c93c 3b94 61bd
000003c0: 545e 91bc 3144 293b 665c e23c 7cfc 113d
000003d0: d3ef e63c 4dfc e2bb 3bce 153c e959 d43c
000003e0: d745 ac3c 6ba2 9b3c 1cb8 953c de5c 14bc
000003f0: 249a 03bc 6e9a d1bc 2953 9fbb 3b15 0bbb

bilstm.bias_hh_l0 f4 [400]
0.060330607 0.0065542655 0.0070476276 0.036531955 0.030500488 -0.07851447 -0.011692562 -0.051786292
-0.013808835 0.034944966 0.0660662 0.021935672 0.1258957 0.0830886 -0.10596494 0.10198665
-0.014105523 0.11128005 -0.018988995 0.13271597 0.15979607 0.0054983655 0.06946968 0.09313338
0.11758916 0.06331169 0.13464856 0.09877172 0.025016567 -0.022151092 -0.004767717 -0.026186297
0.0093586575 0.031913474 0.1500769 0.006455348 0.004827796 -0.059758246 -0.02924794 -0.019180499
0.05240036 0.0050808666 -0.014241363 0.06888666 0.0065503074 0.01831799 -0.09640985 -0.055187438
0.0028887775 -0.010382603 -0.001156599 -0.03865883 -0.057079952 0.06904537 -0.040810574 -0.0033100415
-0.07229702 0.084713176 0.101681106 0.05578534 0.13655527 0.05205782 0.00019170482 -0.028652564
0.18399179 -0.03249185 0.14317226 0.14347713 0.116262205 0.036569312 -0.03646013 -0.0034363584
0.23508625 -0.012251183 0.044179328 0.13760185 -0.06776986 -0.013246736 -0.006357593 0.0041351635
0.028389841 -0.040427778 0.21927506 -0.07577444 -0.026506478 -0.09295609 -0.054898653 0.13585162
-0.016350452 0.04805477 0.08341863 0.14918244 0.14470933 0.010547979 0.07009068 0.101832286
-0.021708647 -0.016888632 0.00572905 0.14940202 0.19341782 0.19413811 0.017482085 0.11867583
0.049940147 0.0017534279 0.18833369 0.048278727 0.08965054 0.03692991 0.100406684 0.051134747
0.18310606 0.22997075 -0.04248981 0.1279732 0.007587821 0.061747037 0.06824831 0.23654744
0.13706228 0.063394144 0.14063121 0.14263508 0.09288411 0.14720052 0.21999931 0.11720797
0.052399747 0.053526234 0.06570131 0.03992485 -0.0068847667 0.15287063 0.15853226 0.041666266
0.044424146 0.0072247637 0.03007504 0.048686035 0.097203076 0.08754176 -0.051316 0.17440253
0.047211207 0.050991695 -0.02843501 0.017332323 -0.08215942 0.083216354 0.05427881 0.009333635
-0.043955535 0.17346509 -0.01416392 -0.0016278084 0.008927455 0.10334616 0.17582664 0.055369437
0.0034639584 0.21946836 -0.015693497 0.0714155 0.07387861 0.099595085 0.23561652 0.061993197
0.18819155 0.14212649 0.06203217 0.08304024 0.05416477 0.022926562 0.04214616 0.031992007
-0.10173572 0.025771985 0.1927194 0.11880832 0.114240594 0.033428118 0.1792072 0.039476413
0.095610484 -0.06161696 -0.02664584 0.01771909 0.06592946 0.12573518 0.13713326 0.1677609
0.14655958 0.07976761 0.08577962 0.109015696 0.0946328 0.083561465 0.04283402 -0.0011297105
0.013854595 0.04129124 -0.010638729 0.012627922 -0.011255911 -0.009676506 -0.056080565 -0.011415239
-0.004320023 -0.019932449 0.012069866 0.0033667474 -0.00017930276 0.0230419 0.022996858 0.005709605
-0.027098883 -0.028116936 0.0018468982 -0.04553786 0.040075663 -0.016930766 0.005157489 -0.0018755037
0.007164714 -0.025956025 0.01449305 0.030558852 -0.013211116 0.0007045201 0.014702501 -0.004801759
0.0027254948 0.008926352 -0.027079623 -0.029210497 -0.025040511 0.000290857 0.024649533 -0.055073004
-0.017745174 0.0025827999 0.02763195 0.03564118 0.028190529 -0.0069270493 0.009143407 0.025921779
0.021029396 0.018998345 0.018276267 -0.009055344 -0.008032355 -0.025586333 -0.0048622084 -0.002122237
00000000: 3a1d 773d 2ac5 d63b c9ef e63b 88a2 153d
00000010: 29dc f93c 32cc a0bd 2992 3fbc dd1d 54bd
00000020: 743e 62bc 7422 0f3d b74d 873d 70b2 b33c
00000030: cdea 003e 5b2a aa3d 2504 d9bd 60de d03d
00000040: da1a 67bc cbe6 e33d cf8e 9bbc b2e6 073e
00000050: 95a1 233e a22b b43b 1f46 8e3d b7bc be3d
00000060: 96d2 f03d 8fa9 813d 50e1 093e d448 ca3d
00000070: 8bef cc3c 3576 b5bc 823a 9cbb a584 d6bc
00000080: 0e55 193c b4b7 023d c2ad 193e 6287 d33b
00000090: 7d32 9e3b 10c5 74bd 6099 efbc 6c20 9dbc
000000a0: c3a1 563d 667d a63b 9b54 69bc 7314 8d3d
000000b0: f6a3 d63b 9c0f 963c 8772 c5bd 390c 62bd
000000c0: a551 3d3b cb1b 2abc 0699 97ba b958 1ebd
000000d0: abcc 69bd a967 8d3d fd28 27bd 48ed 58bb
000000e0: 7610 94bd 1a7e ad3d 2f3e d03d 2b7f 643d
000000f0: 25d5 0b3e 953a 553d 5f04 4939 c8b8 eabc
00000100: 5868 3c3e 2d16 05bd c09b 123e abeb 123e
00000110: e11a ee3d b4c9 153d 3857 15bd 8734 61bb
00000120: 73ba 703e 30b9 48bc 62f5 343d 80e7 0c3e
00000130: edca 8abd d608 59bc 5b53 d0bb 4480 873b
00000140: d091 e83c 9997 25bd a489 603e a12f 9bbd
00000150: 1d24 d9bc c35f bebd 69dd 60bd b01c 0b3e
00000160: 62f1 85bc 14d5 443d 63d7 aa3d 48c3 183e
00000170: af2e 143e 6ed1 2c3c b48b 8f3d 728d d03d
00000180: 55d6 b1bc 075a 8abc c1ba bb3b d8fc 183e
00000190: 520f 463e 24cc 463e 9736 8f3c 500c f33d
000001a0: 0a8e 4c3d 47d3 e53a 8cda 403e eabf 453d
000001b0: b49a b73d d143 173d 05a2 cd3d ab72 513d
000001c0: 2880 3b3e 747d 6b3e cc09 2ebd 680b 033e
000001d0: 42a3 f83b 76ea 7c3d c5c5 8b3d 7e39 723e
000001e0: 0e5a 0c3e cad4 813d a101 103e ee0e 123e
000001f0: 063a be3d bcbb 163e 8047 613e bb0a f03d
00000200: 1ea1 563d 533e 5b3d 698e 863d 3d88 233d
00000210: 9c99 e1bb 1e8a 1c3e 4856 223e 3faa 2a3d
00000220: 18f6 353d b6bd ec3b ee5f f63c 026b 473d
00000230: 6812 c73d 1849 b33d ba30 52bd 9496 323e
00000240: 8a60 413d abdc 503d 8af0 e8bc 84fc 8d3c
00000250: 3343 a8bd 566d aa3d 7553 5e3d 1aec 183c
00000260: b80a 34bd d5a0 313e c90f 68bc 305c d5ba
00000270: 7644 123c 27a7 d33d e60b 343e 10cb 623d
00000280: 9403 633b 50bc 603e a68f 80bc 4a42 923d
00000290: ab4d 973d 82f8 cb3d 7545 713e 94ec 7d3d
000002a0: 49b5 403e 9b89 113e 7215 7e3d 0011 aa3d
000002b0: e1db 5d3d 7cd0 bb3c 74a1 2c3d 0d0a 033d
000002c0: d15a d0bd c51f d33c 3c58 453e c751 f33d
000002d0: f9f6 e93d eceb 083d 1882 373e 05b2 213d
000002e0: 6ecf c33d 1162 7cbd 6048 dabc a027 913c
000002f0: 0606 873d b9c0 003e a96c 0c3e 83c9 2b3e
00000300: b713 163e 335d a33d 3aad af3d 9f43 df3d
00000310: d7ce c13d 4622 ab3d ba72 2f3d cb12 94ba
00000320: 62fe 623c 0121 293d 104e 2ebc 58e5 4e3c
00000330: b66a 38bc 358a 1ebc bcb4 65bd fc06 3bbc
00000340: fb8e 8dbb 6049 a3bc b0c0 453c a6a4 5c3b
00000350: 3803 3cb9 5ec2 bc3c e863 bc3c a317 bb3b
00000360: 7afe ddbc 7d55 e6bc 9f13 f23a e885 3abd
00000370: 6126 243d 64b2 8abc 2700 a93b 76d3 f5ba
00000380: fac5 ea3b bba1 d4bc 4274 6d3c 8f56 fa3c
00000390: 7073 58bc 8baf 383a c2e2 703c 1358 9dbb
000003a0: 379e 323b d53f 123c 16d6 ddbc da4a efbc
000003b0: c221 cdbc 2a7e 9839 d1ed c93c 3b94 61bd
000003c0: 545e 91bc 3144 293b 665c e23c 7cfc 113d
000003d0: d3ef e63c 4dfc e2bb 3bce 153c e959 d43c
000003e0: d745 ac3c 6ba2 9b3c 1cb8 953c de5c 14bc
000003f0: 249a 03bc 6e9a d1bc 2953 9fbb 3b15 0bbb

bilstm.weight_ih_l0_reverse f4 [400, 6]
-0.22122397 -0.18632798 -0.034439776 0.1426879 0.042748004 -0.12337419 -0.2790362 -0.110060126
0.13997446 -0.079057984 0.26912048 -0.1786902 -0.16050611 -0.14401673 0.06535314 0.0578067
0.03358581 -0.010952996 0.061403655 0.030222835 -0.0057553872 0.12196395 0.082151145 0.17757297
0.030012038 0.27201858 0.204851 -0.2938516 -0.19563153 0.03535586 -0.23775518 0.47019634
0.27792323 0.03161454 -0.30199906 0.12338453 0.031504523 0.15765095 0.16828871 -0.10529096
-0.21941973 0.37470546 -0.30114546 -0.2836817 -0.20607974 0.47061107 -0.088137984 -0.3128859
-0.27912715 0.22606106 0.27218243 -0.17004706 -0.13428329 0.51461035 -0.3895128 0.14330655
0.28585154 -0.3028814 0.09397844 0.2923716 -0.16256157 -0.36060828 -0.36069235 -0.32109773
-0.17936616 0.4655522 -0.12960704 0.3591001 0.4926489 -0.19673549 -0.33782873 0.04991247
0.09969581 -0.06299132 0.19007687 0.19347255 -0.12496681 -0.2665095 0.054817323 -0.13187298
0.08136595 -0.0032851533 0.37988055 -0.1583718 -0.15373974 0.103467494 0.510455 0.26675233
0.3141993 -0.2770162 0.06739086 0.49829465 -0.003292641 0.544702 -0.9409004 0.33436427
0.00402715 0.078084365 -0.123117834 0.098241754 -0.08904515 -0.1599869 -0.30168816 -0.24921224
0.09314883 0.5169565 0.21506402 -1.0209783 -0.025354879 0.40483618 0.2511605 0.018375523
-0.13102336 0.24320231 -0.2422368 0.064324535 0.14430588 -0.018226877 -0.26736748 0.11373227
0.036288414 -0.52357966 -0.054085106 0.06535696 0.09330415 -0.041900963 -0.32285964 0.21144003
0.036404703 0.90273774 -0.76501304 0.18311068 -0.29322192 -0.13841635 0.16489676 -0.050935164
-0.1960588 0.17238297 -0.3295997 -0.13887607 -0.2427985 -0.0680863 0.3467099 -0.23775819
-0.37448913 -0.19813837 0.12084457 0.052389707 0.10646923 0.20749822 -0.50904757 0.12652694
-0.0025863452 0.47767708 -0.6344246 -0.117274985 -0.1053887 0.047962103 0.18515718 -0.097189724
-0.18240918 0.3440988 -0.5625078 0.02041916 -0.20278071 0.3506715 -0.28171065 -0.4569577
0.07484621 0.30973965 0.2434503 0.110890254 -0.55755705 0.1768939 -0.29760683 -0.59710616
-0.32405353 -0.026727337 0.24746293 0.088225834 -0.40726718 -0.17060514 0.279514 0.27787837
0.34562787 -0.37668076 0.06174339 0.34304553 -0.008117389 0.63141006 -0.9099342 0.036090273
-0.04128631 0.09764752 0.07863983 0.18514118 0.32894245 -0.31718662 -0.45430067 0.5328122
0.43738836 0.12709238 -0.12325329 -0.16656716 0.04053583 -0.08919052 0.15732913 0.14201826
0.10270525 -0.13814425 -0.0733047 0.08021886 0.09186665 0.09824784 -0.16849667 0.04574816
-0.4404286 0.004355348 0.18769218 0.6313963 0.9939505 -0.7019464 -0.65897447 0.42721012
0.38805214 0.7495649 -0.08301549 -0.60196817 -0.28433126 -0.07375777 -0.20079623 0.44344124
0.47338253 -0.29367402 -0.42999786 0.28647324 0.22037908 -0.1527339 0.27411467 0.23666695
-0.1473627 -0.013244327 -0.085234046 0.08618444 -0.023493512 0.041211966 0.022888344 0.51543605
0.15557744 0.20299554 -0.4309962 0.03773168 0.105962105 0.07636515 0.6277538 0.3374931
00000000: 8988 62be c3cc 3ebe b910 0dbd c71c 123e
00000010: 8818 2f3d 9bab fcbd d5dd 8ebe 3467 e1bd
00000020: 7755 0f3e 27e9 a1bd 29ca 893e 90fa 36be
00000030: b75b 24be 1f79 13be ded7 853d b8c6 6c3d
00000040: 4691 093d 3274 33bc 6682 7b3d e195 f73c
00000050: b097 bcbb 3cc8 f93d dc3e a83d b0d5 353e
00000060: cedb f53c 0546 8b3e 76c4 513e b873 96be
00000070: a253 48be 4ed1 103d 1876 73be 93bd f03e
00000080: f44b 8e3e 3f7e 013d 9f9f 9abe 07b1 fc3d
00000090: e30a 013d 406f 213e e053 2c3e c9a2 d7bd
000000a0: 91af 60be 65d9 bf3e bd2f 9abe ba3e 91be
000000b0: 9106 53be eff3 f03e b081 b4bd 9532 a0be
000000c0: c1e9 8ebe 8d7c 673e 7f5b 8b3e d120 2ebe
000000d0: 8f81 09be 81bd 033f 396e c7be f4be 123e
000000e0: 225b 923e 4513 9bbe c577 c03d bbb1 953e
000000f0: 8a76 26be a6a1 b8be abac b8be ec66 a4be
00000100: c3ab 37be dc5c ee3e b5b7 04be f8db b73e
00000110: 7a3c fc3e 0775 49be e3f7 acbe 0571 4c3d
00000120: 512d cc3d 9801 81bd 83a3 423e ab1d 463e
00000130: 99ee ffbd ef73 88be 2188 603d b609 07be
00000140: 31a3 a63d ba4b 57bb b47f c23e 382c 22be
00000150: f36d 1dbe c4e6 d33d 2ead 023f c393 883e
00000160: bbde a03e 11d5 8dbe 3804 8a3d 7a20 ff3e
00000170: 59c9 57bb 9771 0b3f d9de 70bf cb31 ab3e
00000180: 2ff6 833b b2ea 9f3d 3425 fcbd f932 c93d
00000190: 4e5d b6bd 9bd3 23be df76 9abe 7e31 7fbe
000001a0: d0c4 be3d 4357 043f be39 5c3e 6baf 82bf
000001b0: 09b5 cfbc b046 cf3e 1c98 803e 4488 963c
000001c0: fd2a 06be 070a 793e ec0c 78be 95bc 833d
000001d0: ecc4 133e 8850 95bc 64e4 88be 77ec e83d
000001e0: 29a3 143d 5109 06bf 5888 5dbd dfd9 853d
000001f0: 3f16 bf3d 58a0 2bbd dc4d a5be bc83 583e
00000200: 191d 153d d219 673f e5d7 43bf 5e81 3b3e
00000210: 2f21 96be 04bd 0dbe b2da 283e 64a1 50bd
00000220: a3c3 48be 2985 303e 4bc1 a8be 8735 0ebe
00000230: 2ca0 78be d470 8bbd f683 b13e e276 73be
00000240: 0abd bfbe c9e4 4abe 5c7d f73d 9796 563d
00000250: 8a0c da3d 6a7a 543e f150 02bf 4790 013e
00000260: ac7f 29bb 1792 f43e a769 22bf de2d f0bd
00000270: 08d6 d7bd e973 443d d899 3d3e 680b c7bd
00000280: 79c9 3abe b82d b03e 8300 10bf 1546 a73c
00000290: bfa5 4fbe 378b b33e 613c 90be 5cf6 e9be
000002a0: f848 993d 3296 9e3e 094b 793e 6e1a e33d
000002b0: 0fbc 0ebf ad23 353e ec5f 98be f3db 18bf
000002c0: 58ea a5be 4af3 dabc ec66 7d3e bfaf b43d
000002d0: 5385 d0be 1db3 2ebe 761c 8f3e 1346 8e3e
000002e0: 23f6 b03e 4ddc c0be a3e6 7c3d aaa3 af3e
000002f0: ccfe 04bc 17a4 213f 73f1 68bf 65d3 133d
00000300: d51b 29bd 6cfb c73d eb0d a13d a695 3d3e
00000310: 256b a83e 4966 a2be 199a e8be 6166 083f
00000320: 5ef1 df3e 8124 023e 396c fcbd 9590 2abe
00000330: e608 263d 85a9 b6bd e31a 213e 3c6d 113e
00000340: 2157 d23d b075 0dbe c620 96bd c949 a43d
00000350: 9524 bc3d 2a36 c93d 648a 2cbe 6c62 3b3d
00000360: dc7f e1be 4fb7 8e3b 6132 403e 30a3 213f
00000370: 8a73 7e3f c2b2 33bf 8db2 28bf 49bb da3e
00000380: c5ae c63e 7ce3 3f3f 0604 aabd 961a 1abf
00000390: de93 91be 500e 97bd 879d 4dbe bb0a e33e
000003a0: 325f f23e 715c 96be ae28 dcbe 9fac 923e
000003b0: 0eab 613e 4766 1cbe c258 8c3e d258 723e
000003c0: 3fe6 16be bcfe 58bc 308f aebd 7881 b03d
000003d0: 7775 c0bc e1cd 283d 5680 bb3c 9ef3 033f
000003e0: b14f 1f3e 10de 4f3e 89ab dcbe 898c 1a3d
000003f0: a902 d93d 5565 9c3d 79b4 203f e5cb ac3e

bilstm.weight_hh_l0_reverse f4 [400, 100]
-0.029034853 -0.07968363 0.013544262 0.06185577 0.063038014 0.015911743 -0.011092328 -0.03428155
-0.042943336 -0.009962833 0.13791192 0.060946327 0.12082006 -0.01148058 0.01405553 -0.04087677
-0.021476813 0.009124564 -0.098820835 0.010899552 0.023904167 -0.05598457 -0.09809566 0.08699035
0.06967184 -0.026393384 0.097408205 -0.016030906 -0.07380048 -0.0371026 -0.00861957 -0.004284803
0.011358775 0.021741036 0.0063047837 0.0044598784 -0.0047065364 -0.06373587 0.016945273 -0.038079135
-0.045283858 0.0355343 0.07523084 -0.10082437 -0.033950206 -0.021510808 0.0011976892 -0.12381747
0.016122477 0.0846765 -0.034646805 0.067046 -0.09588498 0.015045987 0.000877331 -0.02237872
0.008451796 0.029665139 -0.025110245 0.02930876 -0.0043097665 0.00035581365 0.07169139 -0.017161788
-0.06544271 -0.010485198 0.019444942 0.027532458 -0.017734198 0.032900278 -0.03739976 -0.028138561
0.05180985 0.03041445 -0.015040737 -0.06880112 0.010155964 -0.032606196 -0.10233796 0.013092637
-0.021296207 -0.06741744 0.008506886 -0.044464864 -0.014669979 -0.030043479 0.03370265 0.049028214
-0.0024938937 0.014012523 -0.05058433 0.0629795 0.11117014 0.017097414 0.032944594 -0.000792874
-0.005806353 -0.016327186 0.046142615 0.005300301 -0.04964176 0.016146183 -0.054922387 -0.008973232
0.10576881 0.0050035566 -0.021130325 0.06000573 -0.055496514 -0.10710042 -0.0063666827 -0.07046096
0.048190385 0.002195166 -0.10438675 -0.00650985 -0.039649412 -0.018237071 -0.04777478 0.010674246
-0.05392573 -0.053718902 -0.013747649 0.02678113 0.047888584 0.060586505 -0.048506487 -0.0066492497
0.010997802 0.03017441 -0.004513234 -0.011568207 -0.021476883 -0.0032185311 0.0066052955 -0.10264566
-0.06368214 0.10469109 0.03594103 0.062222175 -0.06106553 0.048144713 0.07072776 -0.012489207
-0.026355864 -0.06941074 -0.008363276 0.013540436 0.004956651 0.027836945 -0.000718976 -0.023977317
-0.0103495605 -0.08479315 -0.01681662 0.03141798 -0.010371899 0.043070536 0.041866764 -0.019742154
0.10228629 0.016608667 -0.007620183 -0.05895121 -0.04241401 -0.0036547717 -0.037164196 -0.011368307
0.06656762 -0.08763705 0.025116527 0.052271523 0.043430462 -0.030768631 0.0018854141 -0.03457069
0.09496828 0.051440164 0.009178346 -0.0102802925 0.050963186 -0.022336038 -0.01204553 -0.027754093
0.005836965 0.015652463 -0.033527896 -0.039129946 0.002449667 0.024184551 0.16775268 -0.055435397
-0.011832641 -0.039594453 -0.0089264605 -0.02385718 0.035104193 0.035746653 0.049703024 -0.019288035
0.008956411 -0.08084309 0.053691745 -0.029966034 0.047327314 0.031004248 0.025966316 0.09471692
-0.0076390356 -0.047326647 -0.013354657 -0.029544245 -0.028740834 -0.0330916 0.095537305 -0.03754247
0.026138771 0.004789478 -0.029577706 -0.019820267 0.13870193 0.059363037 -0.023824066 0.019472973
0.041163616 0.062232636 0.024072003 -0.009071529 -0.105073795 0.06245703 -0.023037659 -0.06447864
-0.03868342 0.039388817 0.0014719006 -0.0001951092 -0.028986081 -0.03866263 -0.055477116 -0.021671714
-0.0041023283 -0.008124501 0.051381845 -0.010900733 -0.06246793 0.033941913 0.010471615 -0.0055039725
0.04577181 0.007129356 0.059595022 -0.055940315 0.0007114693 0.024758797 0.022463372 0.05075864
00000000: 80da edbc 2c31 a3bd c1e8 5d3c 7a5c 7d3d
00000010: 131a 813d 5859 823c 98bc 35bc d06a 0cbd
00000020: 5ae5 2fbd 263b 23bc c838 0d3e dba2 793d
00000030: 8270 f73d 0b19 3cbc 2a49 663c 666e 27bd
00000040: 24f0 afbc 327f 153c 9462 cabd 0994 323c
00000050: acd2 c33c 1450 65bd 61e6 c8bd ff27 b23d
00000060: 1cb0 8e3d f036 d8bc f47d c73d 3f53 83bc
00000070: b524 97bd e5f8 17bd 1939 0dbc 8867 8cbb
00000080: 281a 3a3c 421a b23c 5c98 ce3b 2c24 923b
00000090: 4a39 9abb f487 82bd d0d0 8a3c def8 1bbd
000000a0: 917b 39bd 6a8c 113d a012 9a3d 027d cebd
000000b0: 5f0f 0bbd 6f37 b0bc c8fb 9c3a 0494 fdbd
000000c0: 4913 843c df6a ad3d cfe9 0dbd 6a4f 893d
000000d0: 585f c4bd 7283 763c b0fc 653a 9453 b7bc
000000e0: 6779 0a3c 4e04 f33c 00b4 cdbc ed18 f03c
000000f0: f138 8dbb 808c ba39 efd2 923d e196 8cbc
00000100: d406 86bd 1cca 2bbc 004b 9f3c c08b e13c
00000110: 4f47 91bc 71c2 063d 7e30 19bd d782 e6bc
00000120: 9136 543d ba27 f93c 6c6d 76bc 9ae7 8cbd
00000130: 3365 263c 138e 05bd 9096 d1bd 8082 563c
00000140: 6275 aebc 2812 8abd 7760 0b3c ca20 36bd
00000150: 5a5a 70bc be1d f6bc ca0b 0a3d cfd1 483d
00000160: 9870 23bb c894 653c 8431 4fbd 65fb 803d
00000170: 2cad e33d e00f 8c3c e9f0 063d e0d8 4fba
00000180: 3843 bebb 97c0 85bc 0a00 3d3d 26ae ad3b
00000190: 2855 4bbd 0045 843c 4cf6 60bd 7604 13bc
000001a0: 519d d83d e0f4 a33b 8119 adbc 91c8 753d
000001b0: 5050 63bd 7757 dbbd 9b9f d0bb d64d 90bd
000001c0: 4863 453d c6dc 0f3b b8c8 d5bd 9450 d5bb
000001d0: 6c67 22bd e965 95bc 7daf 43bd 08e3 2e3c
000001e0: 3ae1 5cbd 5a08 5cbd d23d 61bc 1a64 db3c
000001f0: d226 443d 8e29 783d bdae 46bd f3e1 d9bb
00000200: 2030 343c 5330 f73c c0e3 93bb 9488 3dbc
00000210: 4af0 afbc feed 52bb 3c71 d83b e337 d2bd
00000220: c86b 82bd 4868 d63d e736 133d aedc 7e3d
00000230: d91f 7abd 6433 453d b7d9 903d 889f 4cbc
00000240: 41e8 d7bc 3827 8ebd 1f06 09bc b4d8 5d3c
00000250: 676b a23b 4e0a e43c aa79 3cba 146c c4bc
00000260: 3491 29bc 08a8 adbd 02c3 89bc 24b0 003d
00000270: e6ee 29bc bb6a 303d 7c7c 2b3d 4cba a1bc
00000280: 797b d13d e60e 883c bab2 f9bb d376 71bd
00000290: 50ba 2dbd e584 6fbb 7c39 18bd 2342 3abc
000002a0: 9b54 883d 0e7b b3bd 2dc1 cd3c aa1a 563d
000002b0: 24e4 313d 7f0e fcbc 0020 f73a ff99 0dbd
000002c0: bb7e c23d ecb2 523d c660 163c ac6e 28bc
000002d0: c6be 503d 11fa b6bc 9d5a 45bc 8d5c e3bc
000002e0: 0344 bf3b 9839 803c 8c54 09bd b946 20bd
000002f0: 988a 203b ae1e c63c 5cc7 2b3e 3a10 63bd
00000300: b2dd 41bc cb2d 22bd 4a40 12bc 2270 c3bc
00000310: 6ac9 0f3d 156b 123d 6695 4b3d f101 9ebc
00000320: e9bd 123c 1091 a5bd e0eb 5b3d 547b f5bc
00000330: 49da 413d 9ffc fd3c 50b7 d43c f2fa c13d
00000340: e050 fabb 96d9 41bd 7ecd 5abc c606 f2bc
00000350: e671 ebbc 0f8b 07bd 10a9 c33d 22c6 19bd
00000360: fa20 d63c 0ef1 9c3b f24c f2bc 1d5e a2bc
00000370: e107 0e3e a826 733d b02a c3bc c985 9f3c
00000380: 2e9b 283d a6e7 7e3d a632 c53c c0a0 14bc
00000390: ee30 d7bd f1d2 7f3d 79b9 bcbc 610d 84bd
000003a0: 8172 1ebd 2b56 213d caec c03a 3a96 4cb9
000003b0: 3874 edbc b55c 1ebd f93b 63bd e188 b1bc
000003c0: d36c 86bb a11c 05bc c575 523d fd98 32bc
000003d0: 5fde 7fbd ad06 0b3d 2391 2b3c ab5a b4bb
000003e0: 397b 3b3d 5f9d e93b e919 743d ac21 65bd
000003f0: e681 3a3a f6d2 ca3c 1b05 b83c 4be8 4f3d

bilstm.bias_ih_l0_reverse f4 [400]
0.089010775 0.1663475 0.06438473 -0.008492863 0.030648986 0.03329002 0.05234556 0.33495292
0.11747611 0.15882297 0.018958382 -0.006061845 0.012922455 0.0069455495 0.12375965 0.13599072
0.071464375 0.3117999 -0.027038671 0.03301079 0.15959276 0.28357223 0.07864611 0.49458888
0.049339667 0.24884501 0.018783832 0.19070143 0.015790652 0.2180436 0.056375075 0.3020519
0.08053511 0.19542792 -0.010482613 0.0070021385 0.12578486 0.31112236 0.27258912 0.04343783
-0.049531456 0.45882133 0.098356605 0.15486363 0.0063963807 0.040628776 0.07268086 0.020386854
0.03694766 0.052916527 0.10266683 0.093109444 0.03064629 0.093898095 0.11824348 0.05873472
0.1129503 0.2759956 0.25466973 0.30333674 0.23386265 0.040776923 0.14411557 0.19294529
-0.012909061 -0.09613755 0.05786425 0.039452396 0.106999315 0.19736788 -0.073203966 0.25821105
-0.012375975 0.06477379 0.21999803 0.11351371 0.021963336 0.047149453 -0.03954332 0.00576698
0.057519972 0.21971905 0.119121425 0.2757931 0.14064103 0.18398088 0.11925591 0.04507911
0.0646947 0.013611796 -0.00024287791 0.05280098 0.11901263 -0.076900765 0.082958065 0.22629425
0.19178928 0.05251247 0.021220235 0.07406185 0.0 0.0 0.0 0.0
0.0 0.0 0.0 0.0 0.0 0.0 0.0 0.0
0.0 0.0 0.0 0.0 0.0 0.0 0.0 0.0
0.0 0.0 0.0 0.0 0.0 0.0 0.0 0.0
0.0 0.0 0.0 0.0 0.0 0.0 0.0 0.0
0.0 0.0 0.0 0.0 0.0 0.0 0.0 0.0
0.0 0.0 0.0 0.0 0.0 0.0 0.0 0.0
0.0 0.0 0.0 0.0 0.0 0.0 0.0 0.0
0.0 0.0 0.0 0.0 0.0 0.0 0.0 0.0
0.0 0.0 0.0 0.0 0.0 0.0 0.0 0.0
0.0 0.0 0.0 0.0 0.0 0.0 0.0 0.0
0.0 0.0 0.0 0.0 0.0 0.0 0.0 0.0
0.0 0.0 0.0 0.0 0.0 0.0 0.0 0.0
-0.060342733 0.049673103 -0.07779873 0.017539278 -0.04503812 -0.03788871 0.023467643 -0.06796958
-0.039328158 0.060946636 -0.004011196 0.01913431 -0.0098869875 0.030116862 0.0006699577 0.0075071524
0.022701383 -0.058882684 -0.035625946 -0.029901342 -0.042624716 0.027629428 0.036948144 0.0018885027
0.045677744 0.059364103 -0.021898318 -0.056352347 0.033891067 0.041900076 -0.00076157524 -0.0050656204
-0.019785924 0.036998298 0.06386074 -0.054576244 0.04410341 -0.022980416 -0.017327558 0.04461718
0.018104505 0.06525879 -0.078184254 -0.047148887 -0.05227061 -0.0011887967 0.040336266 0.014308701
0.038586497 0.0038116728 -0.049373176 -0.043730784 0.036571167 0.034923363 -0.07270513 0.04749352
00000000: 484b b63d 0057 2a3e 24dc 833d a625 0bbc
00000010: 9513 fb3c 1e5b 083d 4c68 563d f37e ab3e
00000020: 5197 f03d 7da2 223e 9c4e 9b3c 71a2 c6bb
00000030: b4b8 533c 7e97 e33b b375 fd3d 2741 0b3e
00000040: ea5b 923d 3da4 9f3e 3480 ddbc 5236 073d
00000050: 496c 233e 6130 913e 3611 a13d c13a fd3e
00000060: 6418 4a3d 3ad1 7e3e 8de0 993c 3c47 433e
00000070: 665b 813c d246 5f3e 8de9 663d 8ca6 9a3e
00000080: 97ef a43d 421e 483e 44bf 2bbc 3272 e53b
00000090: bfcd 003e 6e4b 9f3e cd90 8b3e deeb 313d
000000a0: 7fe1 4abd a1ea ea3e 306f c93d 9294 1e3e
000000b0: bb98 d13b 5c6a 263d b4d9 943d 5502 a73c
000000c0: 6e56 173d 00bf 583d fd42 d23d 2ab0 be3d
000000d0: ee0d fb3c a54d c03d a329 f23d d193 703d
000000e0: 7d52 e73d 4c4f 8d3e 1264 823e f44e 9b3e
000000f0: b179 6f3e b405 273d 0893 133e 7393 453e
00000100: 8780 53bc c4e3 c4bd 1003 6d3d d698 213d
00000110: 7522 db3d ce1a 4a3e f6eb 95bd 3d34 843e
00000120: 9ac4 4abc 1fa8 843d 2a47 613e e079 e83d
00000130: 74ec b33c c91f 413d 2df8 21bd eff8 bc3b
00000140: 109a 6b3d 08fe 603e eff5 f33d c134 8d3e
00000150: 3404 103e 7c65 3c3e 713c f43d dfa4 383d
00000160: a87e 843d 0304 5f3c 0bad 7eb9 d745 583d
00000170: e5bc f33d 267e 9dbd ebe5 a93d aeb9 673e
00000180: 6964 443e 5117 573d 0fd6 ad3c bdad 973d
00000190: 0000 0000 0000 0000 0000 0000 0000 0000
000001a0: 0000 0000 0000 0000 0000 0000 0000 0000
000001b0: 0000 0000 0000 0000 0000 0000 0000 0000
000001c0: 0000 0000 0000 0000 0000 0000 0000 0000
000001d0: 0000 0000 0000 0000 0000 0000 0000 0000
000001e0: 0000 0000 0000 0000 0000 0000 0000 0000
000001f0: 0000 0000 0000 0000 0000 0000 0000 0000
00000200: 0000 0000 0000 0000 0000 0000 0000 0000
00000210: 0000 0000 0000 0000 0000 0000 0000 0000
00000220: 0000 0000 0000 0000 0000 0000 0000 0000
00000230: 0000 0000 0000 0000 0000 0000 0000 0000
00000240: 0000 0000 0000 0000 0000 0000 0000 0000
00000250: 0000 0000 0000 0000 0000 0000 0000 0000
00000260: 0000 0000 0000 0000 0000 0000 0000 0000
00000270: 0000 0000 0000 0000 0000 0000 0000 0000
00000280: 0000 0000 0000 0000 0000 0000 0000 0000
00000290: 0000 0000 0000 0000 0000 0000 0000 0000
000002a0: 0000 0000 0000 0000 0000 0000 0000 0000
000002b0: 0000 0000 0000 0000 0000 0000 0000 0000
000002c0: 0000 0000 0000 0000 0000 0000 0000 0000
000002d0: 0000 0000 0000 0000 0000 0000 0000 0000
000002e0: 0000 0000 0000 0000 0000 0000 0000 0000
000002f0: 0000 0000 0000 0000 0000 0000 0000 0000
00000300: 0000 0000 0000 0000 0000 0000 0000 0000
00000310: 0000 0000 0000 0000 0000 0000 0000 0000
00000320: f129 77bd 0676 4b3d f154 9fbd 88ae 8f3c
00000330: e479 38bd 3131 1bbd 373f c03c a333 8bbd
00000340: 9016 21bd 2ea3 793d 5a70 83bb 8ebf 9c3c
00000350: 08fd 21bc a3b7 f63c 1aa0 2f3a 8ffe f53b
00000360: 40f8 b93c f82e 71bd 83ec 11bd a9f3 f4bc
00000370: 4197 2ebd 1c57 e23c f056 173d a387 f73a
00000380: 9618 3b3d c627 733d 1a64 b3bc b8d1 66bd
00000390: 5cd1 0a3d 6a9f 2b3d 73a4 47ba 81fd a5bb
000003a0: 1716 a2bc 878b 173d 6bc9 823d 578b 5fbd
000003b0: c7a5 343d 6d41 bcbc 86f2 8dbc 81c0 363d
000003c0: e64f 943c 67a6 853d 111f a0bd 311f 41bd
000003d0: b519 56bd 66d1 9bba a437 253d 0b6f 6a3c
000003e0: e00c 1e3d 42cd 793b 873b 4abd 0d1f 33bd
000003f0: a6cb 153d cd0b 0f3d 6de6 94bd 9188 423d

bilstm.bias_hh_l0_reverse f4 [400]
0.089010775 0.1663475 0.06438473 -0.008492863 0.030648986 0.03329002 0.05234556 0.33495292
0.11747611 0.15882297 0.018958382 -0.006061845 0.012922455 0.0069455495 0.12375965 0.13599072
0.071464375 0.3117999 -0.027038671 0.03301079 0.15959276 0.28357223 0.07864611 0.49458888
0.049339667 0.24884501 0.018783832 0.19070143 0.015790652 0.2180436 0.056375075 0.3020519
0.08053511 0.19542792 -0.010482613 0.0070021385 0.12578486 0.31112236 0.27258912 0.04343783
-0.049531456 0.45882133 0.098356605 0.15486363 0.0063963807 0.040628776 0.07268086 0.020386854
0.03694766 0.052916527 0.10266683 0.093109444 0.03064629 0.093898095 0.11824348 0.05873472
0.1129503 0.2759956 0.25466973 0.30333674 0.23386265 0.040776923 0.14411557 0.19294529
-0.012909061 -0.09613755 0.05786425 0.039452396 0.106999315 0.19736788 -0.073203966 0.25821105
-0.012375975 0.06477379 0.21999803 0.11351371 0.021963336 0.047149453 -0.03954332 0.00576698
0.057519972 0.21971905 0.119121425 0.2757931 0.14064103 0.18398088 0.11925591 0.04507911
0.0646947 0.013611796 -0.00024287791 0.05280098 0.11901263 -0.076900765 0.082958065 0.22629425
0.19178928 0.05251247 0.021220235 0.07406185 0.0 0.0 0.0 0.0
0.0 0.0 0.0 0.0 0.0 0.0 0.0 0.0
0.0 0.0 0.0 0.0 0.0 0.0 0.0 0.0
0.0 0.0 0.0 0.0 0.0 0.0 0.0 0.0
0.0 0.0 0.0 0.0 0.0 0.0 0.0 0.0
0.0 0.0 0.0 0.0 0.0 0.0 0.0 0.0
0.0 0.0 0.0 0.0 0.0 0.0 0.0 0.0
0.0 0.0 0.0 0.0 0.0 0.0 0.0 0.0
0.0 0.0 0.0 0.0 0.0 0.0 0.0 0.0
0.0 0.0 0.0 0.0 0.0 0.0 0.0 0.0
0.0 0.0 0.0 0.0 0.0 0.0 0.0 0.0
0.0 0.0 0.0 0.0 0.0 0.0 0.0 0.0
0.0 0.0 0.0 0.0 0.0 0.0 0.0 0.0
-0.060342733 0.049673103 -0.07779873 0.017539278 -0.04503812 -0.03788871 0.023467643 -0.06796958
-0.039328158 0.060946636 -0.004011196 0.01913431 -0.0098869875 0.030116862 0.0006699577 0.0075071524
0.022701383 -0.058882684 -0.035625946 -0.029901342 -0.042624716 0.027629428 0.036948144 0.0018885027
0.045677744 0.059364103 -0.021898318 -0.056352347 0.033891067 0.041900076 -0.00076157524 -0.0050656204
-0.019785924 0.036998298 0.06386074 -0.054576244 0.04410341 -0.022980416 -0.017327558 0.04461718
0.018104505 0.06525879 -0.078184254 -0.047148887 -0.05227061 -0.0011887967 0.040336266 0.014308701
0.038586497 0.0038116728 -0.049373176 -0.043730784 0.036571167 0.034923363 -0.07270513 0.04749352
00000000: 484b b63d 0057 2a3e 24dc 833d a625 0bbc
00000010: 9513 fb3c 1e5b 083d 4c68 563d f37e ab3e
00000020: 5197 f03d 7da2 223e 9c4e 9b3c 71a2 c6bb
00000030: b4b8 533c 7e97 e33b b375 fd3d 2741 0b3e
00000040: ea5b 923d 3da4 9f3e 3480 ddbc 5236 073d
00000050: 496c 233e 6130 913e 3611 a13d c13a fd3e
00000060: 6418 4a3d 3ad1 7e3e 8de0 993c 3c47 433e
00000070: 665b 813c d246 5f3e 8de9 663d 8ca6 9a3e
00000080: 97ef a43d 421e 483e 44bf 2bbc 3272 e53b
00000090: bfcd 003e 6e4b 9f3e cd90 8b3e deeb 313d
000000a0: 7fe1 4abd a1ea ea3e 306f c93d 9294 1e3e
000000b0: bb98 d13b 5c6a 263d b4d9 943d 5502 a73c
000000c0: 6e56 173d 00bf 583d fd42 d23d 2ab0 be3d
000000d0: ee0d fb3c a54d c03d a329 f23d d193 703d
000000e0: 7d52 e73d 4c4f 8d3e 1264 823e f44e 9b3e
000000f0: b179 6f3e b405 273d 0893 133e 7393 453e
00000100: 8780 53bc c4e3 c4bd 1003 6d3d d698 213d
00000110: 7522 db3d ce1a 4a3e f6eb 95bd 3d34 843e
00000120: 9ac4 4abc 1fa8 843d 2a47 613e e079 e83d
00000130: 74ec b33c c91f 413d 2df8 21bd eff8 bc3b
00000140: 109a 6b3d 08fe 603e eff5 f33d c134 8d3e
00000150: 3404 103e 7c65 3c3e 713c f43d dfa4 383d
00000160: a87e 843d 0304 5f3c 0bad 7eb9 d745 583d
00000170: e5bc f33d 267e 9dbd ebe5 a93d aeb9 673e
00000180: 6964 443e 5117 573d 0fd6 ad3c bdad 973d
00000190: 0000 0000 0000 0000 0000 0000 0000 0000
000001a0: 0000 0000 0000 0000 0000 0000 0000 0000
000001b0: 0000 0000 0000 0000 0000 0000 0000 0000
000001c0: 0000 0000 0000 0000 0000 0000 0000 0000
000001d0: 0000 0000 0000 0000 0000 0000 0000 0000
000001e0: 0000 0000 0000 0000 0000 0000 0000 0000
000001f0: 0000 0000 0000 0000 0000 0000 0000 0000
00000200: 0000 0000 0000 0000 0000 0000 0000 0000
00000210: 0000 0000 0000 0000 0000 0000 0000 0000
00000220: 0000 0000 0000 0000 0000 0000 0000 0000
00000230: 0000 0000 0000 0000 0000 0000 0000 0000
00000240: 0000 0000 0000 0000 0000 0000 0000 0000
00000250: 0000 0000 0000 0000 0000 0000 0000 0000
00000260: 0000 0000 0000 0000 0000 0000 0000 0000
00000270: 0000 0000 0000 0000 0000 0000 0000 0000
00000280: 0000 0000 0000 0000 0000 0000 0000 0000
00000290: 0000 0000 0000 0000 0000 0000 0000 0000
000002a0: 0000 0000 0000 0000 0000 0000 0000 0000
000002b0: 0000 0000 0000 0000 0000 0000 0000 0000
000002c0: 0000 0000 0000 0000 0000 0000 0000 0000
000002d0: 0000 0000 0000 0000 0000 0000 0000 0000
000002e0: 0000 0000 0000 0000 0000 0000 0000 0000
000002f0: 0000 0000 0000 0000 0000 0000 0000 0000
00000300: 0000 0000 0000 0000 0000 0000 0000 0000
00000310: 0000 0000 0000 0000 0000 0000 0000 0000
00000320: f129 77bd 0676 4b3d f154 9fbd 88ae 8f3c
00000330: e479 38bd 3131 1bbd 373f c03c a333 8bbd
00000340: 9016 21bd 2ea3 793d 5a70 83bb 8ebf 9c3c
00000350: 08fd 21bc a3b7 f63c 1aa0 2f3a 8ffe f53b
00000360: 40f8 b93c f82e 71bd 83ec 11bd a9f3 f4bc
00000370: 4197 2ebd 1c57 e23c f056 173d a387 f73a
00000380: 9618 3b3d c627 733d 1a64 b3bc b8d1 66bd
00000390: 5cd1 0a3d 6a9f 2b3d 73a4 47ba 81fd a5bb
000003a0: 1716 a2bc 878b 173d 6bc9 823d 578b 5fbd
000003b0: c7a5 343d 6d41 bcbc 86f2 8dbc 81c0 363d
000003c0: e64f 943c 67a6 853d 111f a0bd 311f 41bd
000003d0: b519 56bd 66d1 9bba a437 253d 0b6f 6a3c
000003e0: e00c 1e3d 42cd 793b 873b 4abd 0d1f 33bd
000003f0: a6cb 153d cd0b 0f3d 6de6 94bd 9188 423d
