Test Inertial Network/imu_model_difficult.pth (torch, 431602 bytes, 12 tensors)

bilstm.weight_ih_l0 f4 [400, 6]
00000000: dcf2 a53e 1196 d1be c50b 97bb bc5d 90be
00000010: cd21 593e 25f7 033e 564c 2bbe e7a4 25be
00000020: 58ec e0bd 7686 b7be 94f1 2bbf 5274 1b3f
00000030: 42b2 b9bd d2ac 8d3d 6c10 893e 599a b3be
00000040: 8567 94be 7cfb 9a3e aa8a b63e 4e9e 26be
00000050: ac67 c4be 618d 9fbe dfb5 d73e 5295 0cbf
00000060: 20c7 05be 7502 b43e 1d28 2dbd b305 573e
00000070: 96fa 2dbd d4f5 35be b979 a93e b6fd fa3d
00000080: f487 8b3e 209a 343c 1ab1 17bf 17b9 5cbe
00000090: 47a2 573c 8e8a b6bd 106a 223e 1f16 273e
000000a0: f8d9 b8be acd4 203c d72b 8b3c d744 85be
000000b0: b2e4 433d 96d2 173e 38a0 cebe 2da4 e53d
000000c0: 0ab5 683d 2d02 cc3e 5954 50be 76ad 40bd
000000d0: 3fd8 a2be 7c91 a7be b766 b8bc 1d80 9bbc
000000e0: 4fa5 d7be eb25 6b3d 2d81 b9be 56bb 94be
000000f0: 898b 703e b532 433e 3e38 14bd f4e1 4d3e
00000100: 5ba8 e13d 96f7 4fbf a9ba 39be 8ce2 af3d
00000110: 768d 8bbd 3494 1bbc f4e8 92be 16c0 ed3c
00000120: a8aa 383e e3d2 5dbe 0ac2 9f3d 3e5f 1f3f
00000130: da97 f1be 12d6 ecbd 0427 53be 42ec d03e
00000140: 6608 03be 84e5 0b3f 4c51 3ebf 9913 99be
00000150: be55 3d3e fd0a fbbe f043 513c 43c0 2fbe
00000160: aa4c 06bf bf7a a43e 9c82 21be 316c 96bd
00000170: cfd5 ee3e 124b c2bb 4954 5b3e edbc 023c
00000180: 2601 3ebc f309 56be 1d94 c53e f857 4d3f
00000190: f08a b7be 670f a1bd 78f5 38bd 5d1e 81be
000001a0: 1ef7 7cbc 988d e23c dfc0 37be ecac 63bd
000001b0: 93d0 cabe 0a1f 393e c7fe 78bd 87b4 4e3f
000001c0: bf62 8fbe 9c4f 00bf 5619 ec3d 285b 81be
000001d0: f0b6 4c3e 9d8b 3b3e 45df d4be 4f0d 053e
000001e0: f491 fa3d 8139 073e e84c 873c 9118 eb3e
000001f0: 8202 b7be e436 cebe 00c5 933d 2c1b 173e
00000200: 4abb 89be cce3 d93b b345 163c 0d39 4dbe
00000210: 32fe 953b a472 243e 6364 d43d eed3 e03e
00000220: ba42 a23e e779 bdbe c903 343e 643c 83be
00000230: 1069 103f 9da9 47bd a6b8 8cbe 7bce 18be
00000240: 8f9a 6bbb 5e9c 1fbc 902b 663e d7aa f3be
00000250: 628a 5fbd af99 0c3f 7d88 093b f3a3 723d
00000260: 2484 9bbe 16b5 c3be a62c b7bd fde9 173e
00000270: b3c5 bfbe ec4f cbbe 83ee cfbc a97a 563f
00000280: 16cf 953d d8de 6abf 7900 27bd cf7e 09be
00000290: de3c 0ebe 2d71 bfbd 5344 ffbe 3215 b1be
000002a0: a356 0cbe 3d98 b4bc 106c 23be 0536 a23d
000002b0: 78e6 8d3d 1fe7 efbe 3ec6 ecbc 0456 be3e
000002c0: 0629 7e3e ebe3 2f3d 008b e43e b78f 253e
000002d0: 8f4b 36be 84fc 0e3f 1466 21be e9ce f23e
000002e0: e5ff cfbe ca88 92be e98d 8fbe b0b8 783d
000002f0: 7947 9c3b e718 2d3d 6d9a afbd 9bf6 563d
00000300: 6f09 b2be ef6e a13d 6f95 2a3f 8194 82bd
00000310: 2123 1abe d626 6cbe 17e6 b8be 14c8 8abe
00000320: 61b0 6c3e 74b4 283e 0911 41be 4ee3 d03c
00000330: 2b0e 8dbe 735b 30be 658b f63e 331f debc
00000340: bc9f 54bd 3450 253d 64d7 60be d5b9 c33d
00000350: e596 b6be 4aca 94bd c217 303e 7205 6d3e
00000360: ea06 30be 9da8 0ebd e0ec 4e3e 8cfb 083e
00000370: ead1 453e 4a29 8fbe 8ca0 c63d ffdf abbe
00000380: 4b42 ff3e 6a51 8ebe 2a24 33bf 0c7b b83e
00000390: a2fc b63e 9f24 9dbe 82c9 2abe 4e08 4abc
000003a0: 006d 1d3f 1d27 f2bc 2b2f f4bd 4d25 cabe
000003b0: deaf 963e 4203 a03d 4dc7 6fbc 5809 623e
000003c0: f0aa 61be 0c47 2bbe ebcb 643e 6b12 8bbe
000003d0: 2e3f c2bc bb44 373e c223 c33c 7284 efbd
000003e0: 822a 69be 4c0d e4bc d024 1d3e 04e4 ce3d
000003f0: 2c1f 003e cb6f 23bf d1c4 58be 2f58 f7bd
0.3241185 -0.40934804 -0.0046095573 -0.28196514 0.212043 0.12887247 -0.16728339 -0.16176187
-0.10982579 -0.35844773 -0.67165494 0.60724366 -0.09067203 0.069177285 0.2677034 -0.35078695
-0.2898523 0.30269992 0.35652667 -0.16271326 -0.38360345 -0.3116255 0.42130944 -0.54915345
-0.13064241 0.35158125 -0.042274583 0.20998268 -0.042475305 -0.17769557 0.3310068 0.12255423
0.27252162 0.011023074 -0.5925461 -0.21554981 0.0131612485 -0.08913146 0.15860772 0.16317032
-0.36103797 0.00981633 0.016988678 -0.26029083 0.047825523 0.14826426 -0.40356612 0.11212955
0.056813277 0.3984541 -0.20344676 -0.047040425 -0.31805608 -0.32728183 -0.022509916 -0.018981988
-0.42118308 0.05740921 -0.36231366 -0.29049176 0.23490728 0.19062312 -0.03618645 0.20105726
0.110184394 -0.8123716 -0.18137611 0.08588132 -0.06814091 -0.009495784 -0.28693354 0.029022258
0.1803385 -0.21662478 0.07800682 0.62254703 -0.47186166 -0.11564268 -0.20620352 0.4080525
-0.12796172 0.5464709 -0.743428 -0.29897764 0.1848974 -0.4903182 0.012772545 -0.17163186
-0.5246073 0.32124898 -0.1577248 -0.073448546 0.46647498 -0.0059293592 0.21418871 0.007979614
-0.0115969535 -0.20902233 0.38589564 0.80212355 -0.35848188 -0.07864266 -0.045155972 -0.25218478
-0.015439777 0.027655408 -0.17944668 -0.055584833 -0.39612255 0.18078247 -0.06078985 0.8074421
-0.28005025 -0.50121474 0.1152827 -0.2526486 0.1999166 0.18314977 -0.4157659 0.12993358
0.122348696 0.1320553 0.016516164 0.4591718 -0.357441 -0.40276253 0.07215309 0.14756459
-0.26900703 0.00664947 0.009171891 -0.20041294 0.0045774216 0.16059357 0.1037071 0.4391169
0.31691533 -0.37007067 0.17579569 -0.25632012 0.5641031 -0.04874574 -0.27484626 -0.14922516
-0.0035950278 -0.009741871 0.22477555 -0.47591278 -0.05457533 0.54922 0.0020985894 0.059238385
-0.30374253 -0.38224095 -0.08944063 0.14835353 -0.3745552 -0.39709413 -0.025382286 0.83780915
0.07314889 -0.9174628 -0.040771935 -0.1342728 -0.13890406 -0.093477584 -0.49856815 -0.34586483
-0.13704924 -0.02204525 -0.15959191 0.0792046 0.06928724 -0.4685602 -0.028903123 0.37175
0.24820337 0.04294197 0.446373 0.16168104 -0.17802261 0.5585406 -0.15761596 0.47423485
-0.4062492 -0.28619987 -0.28037956 0.060723007 0.0047692624 0.042260077 -0.08574376 0.052481275
-0.34772822 0.07882487 0.6663427 -0.06375981 -0.15052463 -0.2306169 -0.36113045 -0.27105772
0.23114158 0.16475087 -0.18854155 0.025499012 -0.27549872 -0.17222385 0.48153225 -0.027114486
-0.051910147 0.04035969 -0.21957165 0.09556929 -0.35661998 -0.07265146 0.17196563 0.23146608
-0.17190138 -0.03482877 0.20207548 0.13377208 0.19318357 -0.2796119 0.09698591 -0.33569333
0.49855265 -0.2779649 -0.69977057 0.36031377 0.3573962 -0.30692002 -0.16678432 -0.012331082
0.61494446 -0.029559666 -0.11923059 -0.39481583 0.2943105 0.078131214 -0.014634919 0.22073877
-0.22037864 -0.16726321 0.22343414 -0.2716249 -0.023711767 0.17897312 0.023820762 -0.11695184
-0.22770122 -0.027838372 0.15346074 0.10102084 0.12511891 -0.6384246 -0.2116883 -0.120773666

bilstm.weight_hh_l0 f4 [400, 100]
00000000: 32ac 8abe 274f 6abe f32d a03e e888 193e
00000010: b0a7 a4be e4cc 253e c688 07bd 7aee 01bd
00000020: 2c4d 123e 7ebb b7be 75e9 8a3d 2fa6 ba3d
00000030: e8f4 89bd e307 65be 61a8 fb3d d7dd 2e3e
00000040: fb7f a23e f26e a9bd 1a2f 403c e8a2 643e
00000050: a991 dd3e 37e1 a8bd b7f2 9f3e 13ce 983a
00000060: 26c2 1fbe 4a09 193e 1d2e acbd d288 8d3e
00000070: e06b 80be 1dfc 363e 3241 bb3e 849b 13be
00000080: 1ce2 0bbe ff8e 8ebe 1055 303e fcc6 b83d
00000090: 9436 39be 472e 293e af77 69be 948d 123e
000000a0: dee2 d73d 46f1 7cbd 9041 80be 42ea 033d
000000b0: f3e8 303e 8dbc efbd fa41 6ebe 0b3b 60bd
000000c0: cf35 03be 0ba7 c4bd c5da d9bd f37d 21be
000000d0: 19b8 8abe 8003 54bd f72c b8bd 9b8f 5b3c
000000e0: c463 eb3d 9426 b2be 7308 543d b019 b6bd
000000f0: bacc fbbd ea84 f2bd 236e 893d 6c1c fdbb
00000100: a4ec 80bd 4117 de3d 6e66 b4bd 03b8 93bd
00000110: 232f d93c 1102 4dbd 4296 c2be 1aea 06bd
00000120: 83ac b73d e89e 84be c9cc da3b d41f 923e
00000130: 3cb8 c8bd 5fb2 8cbe c990 53bd a228 8f3e
00000140: 189b e23d 9cdc a1be c534 0dbe 456b 543e
00000150: 031e 483e 9bb5 853e 473b 793e da33 edbc
00000160: d616 193e 4951 a9bd dccb d93c a0cd a33d
00000170: e50a b6be dbba 1d3e 5551 eb3d 9887 eb3b
00000180: 3982 12be 400b bb3d 73c5 31be 818f 573e
00000190: 7177 f3bc 999b aabe daa9 9b3e 8783 27be
000001a0: 498e d43d cde1 613e be4c 2a3e 9e81 663c
000001b0: 9b0a 30ba dfaf b1bc b588 683e b60b f7bd
000001c0: 839a fa3d 6b01 f2bd b5e2 1f3e 799b a1bd
000001d0: 517f 93be 5b12 fe3d 038d 2a3d 888a 75bd
000001e0: a73e 00be 2e75 813e 88a3 73be f609 c6be
000001f0: 751a 19bf bcf4 033e b262 273e e9ba f43d
00000200: 6fbe c63d 7353 51be 1435 cc3c 39ee 873e
00000210: 68ad 883e eb98 57be 7231 933d 1214 923c
00000220: 1150 99bd 36ae 003f 694c 343e 054e b5bd
00000230: 64b1 303c a8b2 f9be a20f 24be 5297 5bbe
00000240: df4a 963e 57d8 033f 18b0 223d 0231 4abe
00000250: c316 d6be fc99 a5be 19dd b7be a07e 7ebe
00000260: 92a8 23be 3427 62be e075 edbe b722 af3e
00000270: 4bd9 933d d171 9dbd 5555 5d3e 8b8a 523e
00000280: e7cb 5fbe e3d6 00bd dbdc 20be ad52 34be
00000290: 4a62 bf3d 9c15 18be 71fb 8f3e 0e1d 88be
000002a0: a4b6 46be ce5c b0bd 4344 743c 4536 82bd
000002b0: 0e4d 0fbe ad41 eebe 4d16 f7be 62ac bfbc
000002c0: 80d8 6bbe a5ef 48bc 5667 7abe 88d8 cabe
000002d0: 575f f1bc 5398 e53d 1776 87bd adb6 1f3d
000002e0: 11f1 62bd 5e6b a8bd 7e00 6fbc 1898 4c3d
000002f0: d732 a0be 33f1 863e bb48 df3e e3c2 ba3d
00000300: d4e9 11be 0833 193e 7ddf d73e 7ab9 afbe
00000310: ee6e 07be 7994 4bbe fe94 ae3b a048 4ebb
00000320: 756e 823e c2d3 853e c904 94be 36c7 85be
00000330: 3272 4fbb ef83 f7bd 6363 743e a805 abbd
00000340: 117f 1dbe 8eac eb3d 1323 87be 6ff9 523e
00000350: c99e 213e c56d 4e3e f3c5 4ebe 4245 2abd
00000360: da66 41bc 590f 9cbe f36d 9dbd 637c adbe
00000370: 75e1 a53d cfd7 10be 54b1 63be aca0 38be
00000380: 3995 5e3e b8c9 233d 5204 c2bd d4ca 35be
00000390: e38f 423e 906a 0fbe 0289 26be 433e b0bd
000003a0: abfc 67be 603a e33c edb0 ee3d cf1d 24be
000003b0: 068e 49bc a90a 25be 5c7d 923e ab5f 443e
000003c0: 79b7 b3be d753 683e 7da5 b93d f392 473e
000003d0: b81e c7be 9912 7ebd 7df5 3d3e 91b7 70be
000003e0: 76d7 443e 7fa1 9f3d 7e41 5a3e 473d 5a3d
000003f0: f5f4 ba3e aa4d 1a3e 9a47 1e3e e89e 59bd
-0.270845 -0.22881757 0.31285056 0.14993632 -0.32159185 0.16191441 -0.03308942 -0.03172157
0.14287251 -0.35885233 0.0678281 0.09113728 -0.06736165 -0.2236629 0.12287975 0.17076813
0.31738266 -0.08273114 0.01172998 0.22327769 0.43275192 -0.08246081 0.31239864 0.0011658095
-0.15601406 0.1494495 -0.08407233 0.27643448 -0.25082302 0.17869611 0.36573178 -0.14414793
-0.13660473 -0.27843472 0.17219949 0.09022328 -0.18087226 0.1652156 -0.22799562 0.1431182
0.10541318 -0.061753534 -0.2505002 0.032205828 0.17276363 -0.11705885 -0.23267356 -0.054743808
-0.12813495 -0.096021734 -0.1063743 -0.15770702 -0.2709358 -0.05176115 -0.08992951 0.013400937
0.11493638 -0.34795058 0.05176587 -0.08891618 -0.12294908 -0.118417576 0.0671046 -0.0077243354
-0.062951356 0.10844279 -0.088085994 -0.07212832 0.026511734 -0.0500508 -0.38005263 -0.0329381
0.08968451 -0.25902486 0.0066772443 0.28539908 -0.09800765 -0.27479836 -0.05165175 0.27960688
0.11064738 -0.31613624 -0.13789661 0.20744045 0.19542699 0.26115116 0.24339019 -0.028955389
0.14950117 -0.08267457 0.026586466 0.07998204 -0.35555187 0.15403311 0.11490122 0.007187795
-0.14307489 0.09133005 -0.17360477 0.21050836 -0.02972004 -0.33321837 0.30403024 -0.16358767
0.10378701 0.22058792 0.16630837 0.014068989 -0.00067154475 -0.021690307 0.227084 -0.120627806
0.12236502 -0.11816677 0.15613826 -0.07890982 -0.28808072 0.12405845 0.041638386 -0.059946567
-0.125239 0.25284714 -0.23792851 -0.38679475 -0.59805995 0.12886328 0.16346243 0.11949713
0.09704291 -0.2044199 0.024927653 0.26548937 0.26694798 -0.21054427 0.07187165 0.017831836
-0.074859746 0.50265825 0.17607273 -0.08852772 0.010784481 -0.48769116 -0.16021588 -0.21444443
0.29353997 0.51501983 0.039718717 -0.19745257 -0.4181424 -0.32344043 -0.35910872 -0.24852991
-0.15982273 -0.22085267 -0.46378994 0.34206173 0.0721918 -0.076877244 0.21614583 0.20560662
-0.21855126 -0.031454932 -0.1570925 -0.17609663 0.09344919 -0.14851993 0.28121522 -0.26584667
-0.1940561 -0.08611451 0.014908853 -0.06358007 -0.13994238 -0.46534482 -0.48259202 -0.023397628
-0.23031807 -0.012264167 -0.24453482 -0.39618325 -0.029464407 0.11210694 -0.06614321 0.038992573
-0.05540568 -0.08223604 -0.01458752 0.049949735 -0.31288788 0.26355895 0.43610176 0.09119203
-0.14249355 0.14960873 0.42162696 -0.34321195 -0.1322591 -0.19880857 0.00532782 -0.0031476393
0.25474897 0.2613812 -0.289099 -0.26128548 -0.003165376 -0.12085711 0.23866038 -0.08350688
-0.15380503 0.115075216 -0.26393947 0.20602964 0.15783228 0.20159061 -0.20192699 -0.041569956
-0.011804307 -0.3048046 -0.07686987 -0.33883962 0.08099643 -0.14144824 -0.22235614 -0.18030041
0.21736611 0.039987296 -0.0947348 -0.17753154 0.19000201 -0.14005494 -0.16263202 -0.086056255
-0.22654979 0.027737796 0.1165484 -0.16026996 -0.012301927 -0.16117348 0.28611267 0.1917712
-0.35100916 0.22688232 0.090647675 0.1948965 -0.38890624 -0.062029455 0.18550678 -0.23507525
0.19222817 0.07794475 0.21314046 0.053281095 0.36515012 0.15068689 0.15457001 -0.05313006

bilstm.bias_ih_l0 f4 [400]
00000000: dae0 aabc fe6f 04be 2412 683d 870e 443b
00000010: 619f 81bd ed33 11be 8e85 5f3d 8f8a c3bc
00000020: 6306 2bbe f9a8 94bc b9b3 153e eb8d 05be
00000030: dd90 5bbd 0c24 0abe cb40 fabb e7e5 b63d
00000040: c299 cf3c b0cf 82bc 35ac 613e 7d0b f7bb
00000050: 4892 853d ff75 cebc 8704 11bd 972a 863b
00000060: b185 0f3d 4166 b73c 5c54 8c3d 21d3 11bd
00000070: b841 24be ac22 b83c 9de4 b6bd 3c8a cfbd
00000080: 1387 d7bd 4316 363e f3fe ccba 9278 39bd
00000090: 54af 46b7 62cc 77bd 50b5 90bc 7884 07be
000000a0: c5f6 803d 8b4f 043d 2b8f b8bc ca70 01be
000000b0: fe14 b0bd 7189 013e b235 353d f0ef dd3d
000000c0: 5f39 223d 556d a9bc 27ac 0abe 2f79 e63b
000000d0: a4c2 6d3d b670 56bc 83c2 203e c63f a1bd
000000e0: a69d 1cbd cafc a53c 9c5b 383d ea65 12be
000000f0: 310f aa3c f003 f43c a272 37bc c2a8 4dbd
00000100: cff8 dabd b9fe 23bd 753d f4bd 84bf a6bd
00000110: 5f50 843d 3533 a53d 360c b93d d834 443e
00000120: 87d4 cb3d 5e85 b23c 50d5 f53d e71a 863d
00000130: d96e 633e 5cbb 98bd 74c1 b8bd 5d8c c7bd
00000140: 8fc2 ae3c 49da ac3d 6d99 fdbd dfa3 d5bd
00000150: 62b8 1bbb c147 99bc da46 debd 6823 133e
00000160: ea2c 443d 7838 98bd 12ce 423e 1bc7 8cbc
00000170: 5312 7abd c6b0 0dbc df22 21bd 2b4b d53d
00000180: eda6 48bc 15c5 21be 2ab6 943b 90d3 a2bd
00000190: 36af 493d 3e5d d23b 94c5 5f3d 04c7 f13c
000001a0: 6168 043b ba73 8abd 2474 cb3d 093b d03d
000001b0: c02a 18be 3be3 c63c 178f 813e 11e5 fdbd
000001c0: 0c82 4abb 2034 67bd 641b 563c 94cc fd3d
000001d0: c6e0 bc3c 6a24 3abd 2950 ab3e 8d9e 80ba
000001e0: 07e6 603d 2087 0bbc 6b6e 8b3d 2587 123d
000001f0: bd83 ae3b e2cf 1b3d eb1c f93d 2a93 41ba
00000200: e009 ffbd adfb 943d 02a6 b1bd 78cc 30bd
00000210: 9b9d 63bd 8e57 7d3e 5dab 8e3d ce82 123b
00000220: a3f6 a33c 4f4a 3e3d de49 e2ba fc69 95bd
00000230: f45a 303d d6c0 f43d faf0 e23b 5325 60bd
00000240: c97a 2f3b 6a94 d33d d3b8 4bbc 637c f33d
00000250: ea74 f13d 2af3 2b3c c5f5 aabd 60cf 1b3c
00000260: 7670 c73d 312c 84bc 94d5 5d3e 09d6 a7bd
00000270: fe6e f63c 0352 c03d 4d8a f5bc 290c 95bd
00000280: bd99 093e ed64 bc3d f300 e83c f7c7 9a3c
00000290: cf38 d6bc a3a3 b13c ea4b 0abe b756 cdbd
000002a0: 1d5e a93d 9b4e 6c3d bbe7 7c3d f3fa dd3c
000002b0: 7f11 333e aa23 663d 4f13 bd3d 94f3 083e
000002c0: 064c ac3e bbe1 aabd 3f31 35bd 42a6 2ebd
000002d0: 771a eb3b 4208 73bd 3ee1 35bd c82d 74bd
000002e0: d5d9 00bd c76c f83d a67a 99bd bf41 063e
000002f0: a67c 113e b56e 74bd 6e26 4c3e e27a 0d3c
00000300: 570e 313b 7562 4cbc 49e3 dcbc 99ee 1d3e
00000310: e85d d63d fc44 45be 5dc9 483d e1a1 b0bd
00000320: a4ca 923c b4c4 82bc 350d 913c 0a0d 35bc
00000330: 138c 30bb 53a2 81bc bedd adba ec17 bbbc
00000340: 809a 653c 0a89 9c3b 7711 9fbd 24ec 1d3c
00000350: f82a f63c 48f4 9bbc 6188 adbb 72b7 433d
00000360: 9e94 553c 8170 e23b 4719 46bd 88ac 6bbb
00000370: 13d0 3c3c 9598 f3bc 17f5 2d3b ecac bebc
00000380: 631d ddbc cee6 183c 5880 a2bc 041d 9cbc
00000390: 328c 693b a9c5 453d 709a 613d 5420 1ebd
000003a0: a73f 98bb fa99 b1bc cb24 d33c c14d bb3c
000003b0: 0ff1 56bc aa13 d838 f4b3 b23c 9fa1 acbc
000003c0: f279 84bc d62e 8b3c 478e d13c 089d 953b
000003d0: 8822 953b a2be c9bb 5cc8 4d3c 8f24 c93c
000003e0: b48e c4bc 59b3 933c 4f5c afbc 8817 f33c
000003f0: d808 9e3c 9f15 53bd 4901 50bc e662 83ba
-0.02085917 -0.12933347 0.056657925 0.0029915886 -0.06329227 -0.14179964 0.054570727 -0.02386978
-0.16701655 -0.018146979 0.1461934 -0.13042419 -0.05360495 -0.13490313 -0.0076371185 0.08930569
0.025341872 -0.015968174 0.22038348 -0.0075392113 0.065220416 -0.02520275 -0.03540471 0.0040944326
0.035039607 0.022387626 0.06852028 -0.03560174 -0.16040695 0.02247747 -0.08930323 -0.10133788
-0.1052381 0.1778193 -0.0015639946 -0.045281 -1.1842541e-05 -0.06049765 -0.017664582 -0.13234127
0.062970676 0.03230242 -0.022529205 -0.12640682 -0.08597754 0.12650086 0.04424066 0.1083678
0.039605495 -0.020682016 -0.13542233 0.007033489 0.058046952 -0.013088396 0.156992 -0.07873492
-0.038236283 0.02026214 0.04500924 -0.1429669 0.020759197 0.029787034 -0.011196764 -0.050209768
-0.10691988 -0.040037844 -0.119257845 -0.081419975 0.06460642 0.080664076 0.09035532 0.19160783
0.09952646 0.02179211 0.12003577 0.065481 0.22210254 -0.07457611 -0.09021273 -0.09743569
0.021333007 0.08440072 -0.12382779 -0.104316466 -0.0023761024 -0.018710973 -0.108533576 0.14368975
0.047894396 -0.074326456 0.19023922 -0.017184785 -0.06105263 -0.008648103 -0.039339896 0.10414728
-0.012246829 -0.15797837 0.004538317 -0.079505086 0.04923936 0.0064198067 0.054631785 0.029513843
0.0020203816 -0.06760354 0.099342614 0.1016751 -0.14860058 0.024278274 0.2530448 -0.123972066
-0.0030900268 -0.056446195 0.013068054 0.12392536 0.0230564 -0.045444883 0.33459595 -0.0009812877
0.05490687 -0.008516103 0.0680817 0.035773415 0.005325763 0.03804005 0.12163719 -0.0007384295
-0.124530554 0.07274566 -0.086742416 -0.043163747 -0.055570226 0.2474043 0.06966279 0.0022355798
0.020015066 0.046457585 -0.0017264446 -0.072956055 0.04305549 0.11950843 0.0069256993 -0.054723095
0.0026776067 0.10331042 -0.012434202 0.11888959 0.11789878 0.010494987 -0.08347658 0.009509891
0.09738247 -0.016134353 0.21663505 -0.08195121 0.030082222 0.093906425 -0.029973174 -0.0727771
0.13437553 0.091989376 0.028320765 0.018894179 -0.026150135 0.021684473 -0.13505521 -0.10026305
0.08269904 0.05769215 0.061744433 0.027097201 0.17487143 0.056186356 0.092321984 0.13374168
0.3365175 -0.08343836 -0.044236418 -0.042639025 0.0071747857 -0.059334047 -0.04440426 -0.059613973
-0.03145774 0.12130123 -0.074940965 0.13111018 0.14207706 -0.05967589 0.19936535 0.008635255
0.0027016604 -0.012474646 -0.026963847 0.15423049 0.1046713 -0.19264597 0.04902016 -0.08624626
0.017918892 -0.015962936 0.017706493 -0.011050472 -0.002693896 -0.015824473 -0.0013264937 -0.022838555
0.014013886 0.0047770785 -0.07767003 0.00963882 0.030049786 -0.01903738 -0.0052957986 0.04778237
0.013035921 0.006910384 -0.04836395 -0.003596099 0.011524218 -0.029735843 0.002654379 -0.023275815
-0.026991552 0.009332372 -0.01983659 -0.019056804 0.0035636541 0.048284207 0.055078924 -0.03860505
-0.00464626 -0.021679867 0.02577438 0.022864224 -0.013118996 0.00010303345 0.021814324 -0.02107316
-0.01617143 0.016990107 0.025580538 0.0045658387 0.0045512356 -0.0061567584 0.012559976 0.024553565
-0.023993827 0.018029856 -0.02140632 0.029674307 0.019291326 -0.05153429 -0.012695619 -0.0010023981

bilstm.bias_hh_l0 f4 [400]
00000000: dae0 aabc fe6f 04be 2412 683d 870e 443b
00000010: 619f 81bd ed33 11be 8e85 5f3d 8f8a c3bc
00000020: 6306 2bbe f9a8 94bc b9b3 153e eb8d 05be
00000030: dd90 5bbd 0c24 0abe cb40 fabb e7e5 b63d
00000040: c299 cf3c b0cf 82bc 35ac 613e 7d0b f7bb
00000050: 4892 853d ff75 cebc 8704 11bd 972a 863b
00000060: b185 0f3d 4166 b73c 5c54 8c3d 21d3 11bd
00000070: b841 24be ac22 b83c 9de4 b6bd 3c8a cfbd
00000080: 1387 d7bd 4316 363e f3fe ccba 9278 39bd
00000090: 54af 46b7 62cc 77bd 50b5 90bc 7884 07be
000000a0: c5f6 803d 8b4f 043d 2b8f b8bc ca70 01be
000000b0: fe14 b0bd 7189 013e b235 353d f0ef dd3d
000000c0: 5f39 223d 556d a9bc 27ac 0abe 2f79 e63b
000000d0: a4c2 6d3d b670 56bc 83c2 203e c63f a1bd
000000e0: a69d 1cbd cafc a53c 9c5b 383d ea65 12be
000000f0: 310f aa3c f003 f43c a272 37bc c2a8 4dbd
00000100: cff8 dabd b9fe 23bd 753d f4bd 84bf a6bd
00000110: 5f50 843d 3533 a53d 360c b93d d834 443e
00000120: 87d4 cb3d 5e85 b23c 50d5 f53d e71a 863d
00000130: d96e 633e 5cbb 98bd 74c1 b8bd 5d8c c7bd
00000140: 8fc2 ae3c 49da ac3d 6d99 fdbd dfa3 d5bd
00000150: 62b8 1bbb c147 99bc da46 debd 6823 133e
00000160: ea2c 443d 7838 98bd 12ce 423e 1bc7 8cbc
00000170: 5312 7abd c6b0 0dbc df22 21bd 2b4b d53d
00000180: eda6 48bc 15c5 21be 2ab6 943b 90d3 a2bd
00000190: 36af 493d 3e5d d23b 94c5 5f3d 04c7 f13c
000001a0: 6168 043b ba73 8abd 2474 cb3d 093b d03d
000001b0: c02a 18be 3be3 c63c 178f 813e 11e5 fdbd
000001c0: 0c82 4abb 2034 67bd 641b 563c 94cc fd3d
000001d0: c6e0 bc3c 6a24 3abd 2950 ab3e 8d9e 80ba
000001e0: 07e6 603d 2087 0bbc 6b6e 8b3d 2587 123d
000001f0: bd83 ae3b e2cf 1b3d eb1c f93d 2a93 41ba
00000200: e009 ffbd adfb 943d 02a6 b1bd 78cc 30bd
00000210: 9b9d 63bd 8e57 7d3e 5dab 8e3d ce82 123b
00000220: a3f6 a33c 4f4a 3e3d de49 e2ba fc69 95bd
00000230: f45a 303d d6c0 f43d faf0 e23b 5325 60bd
00000240: c97a 2f3b 6a94 d33d d3b8 4bbc 637c f33d
00000250: ea74 f13d 2af3 2b3c c5f5 aabd 60cf 1b3c
00000260: 7670 c73d 312c 84bc 94d5 5d3e 09d6 a7bd
00000270: fe6e f63c 0352 c03d 4d8a f5bc 290c 95bd
00000280: bd99 093e ed64 bc3d f300 e83c f7c7 9a3c
00000290: cf38 d6bc a3a3 b13c ea4b 0abe b756 cdbd
000002a0: 1d5e a93d 9b4e 6c3d bbe7 7c3d f3fa dd3c
000002b0: 7f11 333e aa23 663d 4f13 bd3d 94f3 083e
000002c0: 064c ac3e bbe1 aabd 3f31 35bd 42a6 2ebd
000002d0: 771a eb3b 4208 73bd 3ee1 35bd c82d 74bd
000002e0: d5d9 00bd c76c f83d a67a 99bd bf41 063e
000002f0: a67c 113e b56e 74bd 6e26 4c3e e27a 0d3c
00000300: 570e 313b 7562 4cbc 49e3 dcbc 99ee 1d3e
00000310: e85d d63d fc44 45be 5dc9 483d e1a1 b0bd
00000320: a4ca 923c b4c4 82bc 350d 913c 0a0d 35bc
00000330: 138c 30bb 53a2 81bc bedd adba ec17 bbbc
00000340: 809a 653c 0a89 9c3b 7711 9fbd 24ec 1d3c
00000350: f82a f63c 48f4 9bbc 6188 adbb 72b7 433d
00000360: 9e94 553c 8170 e23b 4719 46bd 88ac 6bbb
00000370: 13d0 3c3c 9598 f3bc 17f5 2d3b ecac bebc
00000380: 631d ddbc cee6 183c 5880 a2bc 041d 9cbc
00000390: 328c 693b a9c5 453d 709a 613d 5420 1ebd
000003a0: a73f 98bb fa99 b1bc cb24 d33c c14d bb3c
000003b0: 0ff1 56bc aa13 d838 f4b3 b23c 9fa1 acbc
000003c0: f279 84bc d62e 8b3c 478e d13c 089d 953b
000003d0: 8822 953b a2be c9bb 5cc8 4d3c 8f24 c93c
000003e0: b48e c4bc 59b3 933c 4f5c afbc 8817 f33c
000003f0: d808 9e3c 9f15 53bd 4901 50bc e662 83ba
-0.02085917 -0.12933347 0.056657925 0.0029915886 -0.06329227 -0.14179964 0.054570727 -0.02386978
-0.16701655 -0.018146979 0.1461934 -0.13042419 -0.05360495 -0.13490313 -0.0076371185 0.08930569
0.025341872 -0.015968174 0.22038348 -0.0075392113 0.065220416 -0.02520275 -0.03540471 0.0040944326
0.035039607 0.022387626 0.06852028 -0.03560174 -0.16040695 0.02247747 -0.08930323 -0.10133788
-0.1052381 0.1778193 -0.0015639946 -0.045281 -1.1842541e-05 -0.06049765 -0.017664582 -0.13234127
0.062970676 0.03230242 -0.022529205 -0.12640682 -0.08597754 0.12650086 0.04424066 0.1083678
0.039605495 -0.020682016 -0.13542233 0.007033489 0.058046952 -0.013088396 0.156992 -0.07873492
-0.038236283 0.02026214 0.04500924 -0.1429669 0.020759197 0.029787034 -0.011196764 -0.050209768
-0.10691988 -0.040037844 -0.119257845 -0.081419975 0.06460642 0.080664076 0.09035532 0.19160783
0.09952646 0.02179211 0.12003577 0.065481 0.22210254 -0.07457611 -0.09021273 -0.09743569
0.021333007 0.08440072 -0.12382779 -0.104316466 -0.0023761024 -0.018710973 -0.108533576 0.14368975
0.047894396 -0.074326456 0.19023922 -0.017184785 -0.06105263 -0.008648103 -0.039339896 0.10414728
-0.012246829 -0.15797837 0.004538317 -0.079505086 0.04923936 0.0064198067 0.054631785 0.029513843
0.0020203816 -0.06760354 0.099342614 0.1016751 -0.14860058 0.024278274 0.2530448 -0.123972066
-0.0030900268 -0.056446195 0.013068054 0.12392536 0.0230564 -0.045444883 0.33459595 -0.0009812877
0.05490687 -0.008516103 0.0680817 0.035773415 0.005325763 0.03804005 0.12163719 -0.0007384295
-0.124530554 0.07274566 -0.086742416 -0.043163747 -0.055570226 0.2474043 0.06966279 0.0022355798
0.020015066 0.046457585 -0.0017264446 -0.072956055 0.04305549 0.11950843 0.0069256993 -0.054723095
0.0026776067 0.10331042 -0.012434202 0.11888959 0.11789878 0.010494987 -0.08347658 0.009509891
0.09738247 -0.016134353 0.21663505 -0.08195121 0.030082222 0.093906425 -0.029973174 -0.0727771
0.13437553 0.091989376 0.028320765 0.018894179 -0.026150135 0.021684473 -0.13505521 -0.10026305
0.08269904 0.05769215 0.061744433 0.027097201 0.17487143 0.056186356 0.092321984 0.13374168
0.3365175 -0.08343836 -0.044236418 -0.042639025 0.0071747857 -0.059334047 -0.04440426 -0.059613973
-0.03145774 0.12130123 -0.074940965 0.13111018 0.14207706 -0.05967589 0.19936535 0.008635255
0.0027016604 -0.012474646 -0.026963847 0.15423049 0.1046713 -0.19264597 0.04902016 -0.08624626
0.017918892 -0.015962936 0.017706493 -0.011050472 -0.002693896 -0.015824473 -0.0013264937 -0.022838555
0.014013886 0.0047770785 -0.07767003 0.00963882 0.030049786 -0.01903738 -0.0052957986 0.04778237
0.013035921 0.006910384 -0.04836395 -0.003596099 0.011524218 -0.029735843 0.002654379 -0.023275815
-0.026991552 0.009332372 -0.01983659 -0.019056804 0.0035636541 0.048284207 0.055078924 -0.03860505
-0.00464626 -0.021679867 0.02577438 0.022864224 -0.013118996 0.00010303345 0.021814324 -0.02107316
-0.01617143 0.016990107 0.025580538 0.0045658387 0.0045512356 -0.0061567584 0.012559976 0.024553565
-0.023993827 0.018029856 -0.02140632 0.029674307 0.019291326 -0.05153429 -0.012695619 -0.0010023981

bilstm.weight_ih_l0_reverse f4 [400, 6]
00000000: 6686 9b3e be6f 93be 7d73 463d d08a 1dbf
00000010: 743b 023f 766c 4bbe 72e6 69bc 02ae 493d
00000020: 5c6e d4be 69dd 283f 1505 033f 3e24 74bf
00000030: 45e0 ee3e f472 7e3e 84dc bb3d d4b8 5a3e
00000040: 5622 06bf 6f7f d1be 4875 3bbc dfcc 883e
00000050: 5682 ce3c 7c08 5d3e 47c2 7a3e 5f69 72bd
00000060: afa3 933e 71b5 60bf bad6 053f 8918 213f
00000070: 0772 c7be 5ef1 57bf f8d4 6fbd 3d8c 2f3f
00000080: 4f8b b13c 5656 0a3f 233a 8fbe 85df b6be
00000090: da9c b93e de09 a5be 5cc5 143e 4dc9 04bf
000000a0: 9044 bfbe 3f90 193c 9652 5c3e 5878 a43e
000000b0: 2ef1 ef3d 33bc 9bbe d0f1 37be 18a5 8a3e
000000c0: d936 873d 94cb 03bf 728e 47be 64ae c93e
000000d0: 6516 f33e 2b20 81bf 6915 bf3e e6fb f83d
000000e0: 321d 8abd a8de d53e aa54 35be b42d e83d
000000f0: 2861 0a3f 4a7d 63be 3a2e 463e 9067 a3bd
00000100: b976 ecbe 6b88 f83c 6cac 4a3d bad3 6dbf
00000110: 6fc4 213f 381a 3dbe 8219 e8bd 52fa 463e
00000120: c3a8 473e e473 4d3e e4a4 0dbe a542 6cbd
00000130: 0c56 163e b0c4 11be b5d8 6b3e d1b4 263f
00000140: a1c0 58bf 0859 58be d849 87bd 7a20 0cbf
00000150: e3a6 a83e 8590 89be bce8 cabd f831 2ebf
00000160: dae1 203f c4c2 a6be d18b a93e 2d14 b3be
00000170: 9287 4cbd 1e03 11bf 82a8 da3e 0f7d 17bd
00000180: a567 093f 7334 cf3c de6a 3e3e a59d 64be
00000190: 5b4d 1f3e be4c 163d d4aa eabd a487 4f3e
000001a0: 5345 b3be a064 92bd 9d9b bf3d f58f b33e
000001b0: 1584 13be f3b3 4cbe 24d1 dd3e fde6 b93e
000001c0: 3eb5 bebd 9fed 17bf d4ef 1b3e 87da abbe
000001d0: 2251 613d ca32 a8bb 70a5 63bd d842 ab3e
000001e0: d26c 863e 432c 22bd 300b 353e e5c3 47bd
000001f0: a489 233e 24a2 f7be c57e c13e bc67 c03e
00000200: b4f6 ce3e 29d6 f23e 94cc 7bbd f58d ecbe
00000210: 8815 f33e ea14 423e c673 e1bd 5a7f 5e3e
00000220: d549 e7bd 5e29 9c3e f053 2e3e bbf0 a23d
00000230: b1f7 37bf f34c 80be 0715 633e 1294 a43e
00000240: 1bc8 b7bc 984c 98be 18e0 373e bc21 a3be
00000250: 2422 03bf 376b bfbe 6a45 3bbe 3907 3a3e
00000260: a48b 2fbf 0651 9cbe 4cf7 c23c ef2d f33e
00000270: ee70 913e 6b0f 31bd d4e8 2f3e 9bf9 1f3e
00000280: c23f 7c3e 00da 463e 3a5f 4a3f 9971 6cbf
00000290: b41f 09bf 6ec3 16bf 01c7 32bf 31a8 87be
000002a0: 521e 443e 103c 89bd cfc2 e3bd 7d73 c23e
000002b0: c098 0cbe ca97 3abe 3fb6 dbbd feb2 5f3e
000002c0: 8b6e 9cbe 61e1 59be 6dd4 d33d 9e62 083d
000002d0: eb57 073e 6fef 49bf b813 873e fc73 c7bd
000002e0: d662 19be 365b 47bd c90f 1e3f f1fb 09bd
000002f0: ea5b 2abe 9aae 043e 75ae a9be 7a87 e1be
00000300: ada3 f1bc 67d1 823e 6f34 9ebe c11a fdbd
00000310: b428 c83d d349 7f3e 7145 073f fe20 fa3d
00000320: 6670 b03c 8670 b2be 0043 3fbe bbb8 de3e
00000330: 5b85 da3e 1727 1c3f e945 6a3d 6e36 dcbe
00000340: d2c8 21be d8a4 023f fc8a 083e 218b 813e
00000350: a6bf cdbe cbb1 e6bd 7329 90bc 361f 9fbc
00000360: 1dc0 a63e 374a ac3e 2688 fc3d 2b2e 383e
00000370: 0e09 05bf ae10 ecbd 6d45 033e 4f68 003f
00000380: 17bf 53be 595d 65be c001 7dba 12b9 cb3d
00000390: 7c5b 4e3d f781 1c3f 73cc 8ebe 2a13 7d3d
000003a0: b985 1a3e 0a3f 9cbd 4022 3dbe 5d6e b43e
000003b0: 108a f43d 2072 a0bd 09c7 e0bd 6d4d c23e
000003c0: 801b 1d3f 43f2 7e3e cde4 1ebf 71e9 2a3f
000003d0: 99e3 83be 6494 5ebe 365e 163f 9fd0 1d3e
000003e0: e995 203c 2568 973e aa12 c4be f309 723d
000003f0: c035 923e 79dc 053c 15a5 3e3f 661a 82be
0.30375975 -0.2879619 0.048449982 -0.61539936 0.5087197 -0.19865593 -0.014276134 0.049238212
-0.41490448 0.65962845 0.5117963 -0.953678 0.4665548 0.24848539 0.091729194 0.21359569
-0.5239614 -0.40917537 -0.011441536 0.26718804 0.025208633 0.21585268 0.24488173 -0.05918252
0.28835818 -0.8777686 0.5228077 0.6292806 -0.38954183 -0.8435267 -0.058552712 0.6857336
0.021672873 0.5403799 -0.27974042 -0.35717407 0.3625248 -0.3223409 0.14528412 -0.5186966
-0.37356997 0.00937277 0.21515879 0.32123065 0.11715923 -0.30417022 -0.17963338 0.27079082
0.06602258 -0.5148251 -0.19487932 0.39390862 0.47478023 -1.0087942 0.37321022 0.12157421
-0.0674385 0.41771436 -0.17708078 0.11336842 0.540545 -0.22215763 0.19353572 -0.07978737
-0.46184328 0.030338487 0.04948084 -0.92901194 0.6319036 -0.18467033 -0.1133299 0.19431427
0.19497971 0.2006374 -0.13832432 -0.057680745 0.14681262 -0.14235187 0.23031886 0.65119654
-0.8466893 -0.21127713 -0.066058815 -0.54737055 0.32939824 -0.26868072 -0.09907672 -0.68044996
0.6284462 -0.3257047 0.33114484 -0.3497633 -0.049933977 -0.5664538 0.42706686 -0.0369845
0.53673774 0.025293564 0.18595454 -0.22325762 0.15556853 0.03669428 -0.11458364 0.20266587
-0.35013828 -0.07148099 0.09355853 0.35070768 -0.14405854 -0.1999052 0.43323624 0.36309043
-0.09311913 -0.59346956 0.15228206 -0.3356516 0.055009015 -0.0051330077 -0.055577695 0.33449435
0.26254898 -0.039592993 0.17680049 -0.048770804 0.15970474 -0.4836589 0.3779203 0.37579143
0.40422595 0.47429016 -0.061474398 -0.46202055 0.47477365 0.1895329 -0.1100841 0.21728268
-0.11293379 0.3050031 0.17024207 0.07956072 -0.7186232 -0.25058708 0.2217599 0.3214422
-0.022434285 -0.29745936 0.17956579 -0.31861675 -0.5122397 -0.37386486 -0.18288198 0.18166818
-0.6857245 -0.30530566 0.023799561 0.47495982 0.2840647 -0.043227594 0.1717866 0.1562256
0.24633697 0.19419098 0.79051554 -0.92360836 -0.53564 -0.5889195 -0.69834906 -0.26495507
0.19152191 -0.06700909 -0.11121141 0.37978736 -0.13730145 -0.18221965 -0.1072812 0.21845624
-0.30553088 -0.21277381 0.103432514 0.033297174 0.13217132 -0.7888097 0.26382232 -0.09738919
-0.14979109 -0.04867097 0.61742836 -0.033687536 -0.16636625 0.1295723 -0.33140913 -0.44048673
-0.029496992 0.25550386 -0.3089938 -0.123586185 0.097733885 0.24930505 0.52840334 0.12213324
0.02153797 -0.34851474 -0.18677902 0.43500313 0.42679867 0.60997146 0.057195578 -0.43010277
-0.15799263 0.5103278 0.13334268 0.2530146 -0.4018528 -0.1126438 -0.01759789 -0.019424062
0.32568446 0.3365037 0.12330656 0.17986362 -0.5196694 -0.11526619 0.12819453 0.5015916
-0.20678364 -0.2239889 -0.0009651445 0.09947409 0.050380215 0.6113581 -0.27890357 0.061785854
0.15090074 -0.07629211 -0.18470097 0.3524045 0.11940396 -0.078342676 -0.10975463 0.37949696
0.61370087 0.24897103 -0.6206787 0.66762453 -0.2575958 -0.21736294 0.58737504 0.15411614
0.009801366 0.29571643 -0.3829549 0.05909152 0.28556633 0.008170241 0.74470645 -0.25410765

bilstm.weight_hh_l0_reverse f4 [400, 100]
00000000: 40a3 343d 6b0a 17bd 86ee 623d a5d4 b6bd
00000010: 340c 34bd 51d4 213d 72e1 1c3e 0e72 e03c
00000020: 6bcd 8cbc f2f4 a6bd 409d 25bc 85a1 4d3d
00000030: 4cf6 18bd f30d 78bc 4e25 a23d 6a9b 593d
00000040: 04d0 c03c e015 8cba 7e22 78bd 18e2 51bd
00000050: 9875 02bc 20d8 223d b0af b63d c06b dbbb
00000060: 7a5a eebc 0015 d4b8 400a 013c 23e3 823d
00000070: 30f2 96bc dcba 49bd 3880 22bd 58a8 4dbd
00000080: 478b cabb e9ef 64bd 12cb 2f3d d32f b93b
00000090: b6b6 8cbd 333b 0cbe 54b4 63bd 0ab3 e43c
000000a0: 1e3b 0dbd fa53 093c 7f64 4bbd 8e54 063d
000000b0: fd19 94bd 3235 253d b44d 45bb 6f7d 6abd
000000c0: bc77 c1bb 2820 a1bd e19f ba3b 47a1 013d
000000d0: cee7 76bd 5827 7dbd 68d9 98bd 6d14 583d
000000e0: d1cc 1b3d 4ec9 c13b d341 10bd d8b3 c0bc
000000f0: 57cc 3f3d b610 1abd de73 c33c 8cbe 80bc
00000100: c0c2 583d c044 7cbd 4444 f53c f02c a6bc
00000110: e764 d23d 1887 6a3b c3fa 383d 740c 2dbd
00000120: be6e 943c 17a2 f83c e3f2 d0bc 5269 033c
00000130: d8cb 873c 3ea4 133d a48f 6fbd 4c60 86bd
00000140: a489 d0bc 6933 eebd a087 0bba e933 04bd
00000150: f552 c1bd ae67 203d d6f1 2dbd 56a2 d5ba
00000160: a0cf 80bb 75cd 643d b4e5 82bd 5270 3a3d
00000170: ffb0 d1bd 4c9f 00bd 06cb 45bd f4db 5abd
00000180: d451 533c c91c 073e 11ab 40bd 871f 2fbc
00000190: cbcc 233d 00e8 ab3c fade 9fba f478 84bc
000001a0: 20d4 d6bb 9da5 0dbe 791f 28bd 08b9 8e3b
000001b0: 2bbe a3bc 8f92 1c3d a80d 16bd ba57 1d3d
000001c0: d60c 75bd da07 10bc 9e74 d93d 4161 193d
000001d0: b267 8e3a 2919 07bd 937e 073d a8ad f83c
000001e0: f9f5 a23d 0f96 123d d8d8 8239 eab7 133d
000001f0: 23da 7e3c 6876 9fbd 6846 23bd 95c3 c93b
00000200: ce89 eabc 151c 66bd 549b 433d e7f5 e5bc
00000210: 305e 5cbd be2b a43c 4e07 98bc 0d79 6a3c
00000220: b35e 2fbd db22 b63d f634 59bd 7fbf 423d
00000230: d6e1 743d 17da f43c 2359 0b3c ad57 9ebc
00000240: 52c9 bc3b c2ff b63d 59c7 0dbd ab48 1ebd
00000250: 8ac0 09bd aa07 193d 78f6 883d bfc1 e53c
00000260: e4bf 8abc ecbe 6fbd b495 d9bd 9dff 353d
00000270: 46b9 523d c076 64bc b2b1 3bbd a5a1 87bd
00000280: 1d1f 82bc 0c5e bebc 6204 a83a 07af 773d
00000290: ffe2 843c df89 48bc 15d1 e33b abf3 14be
000002a0: 0245 123c c24a d5bc f1f4 81bd cde3 8a3c
000002b0: 7a11 0a3d 7c6f 923c 933d 0b3c 5fda eabc
000002c0: 7445 7839 05ff 26bc 4de0 6dbd 28cc 77bc
000002d0: df15 abbb efa9 e53d d212 a2bd 8e28 bcbd
000002e0: a4a5 8dbc 23d0 cfbd 0f60 53bd ca9d 3d3b
000002f0: 78a0 453d 7d09 81bc 949e d4bc e604 84bb
00000300: 8e17 223d 47d4 aa3c fd7c 89bd 2ef9 e33d
00000310: baed 273d 3e1c 9bbb 927f 8dbd 4e59 96bd
00000320: 8951 cd3b 8997 c3bc e0b2 3f3d afce 2cbc
00000330: b0b0 0b3e 50e7 8abc ac3b 93bd f9ba 663d
00000340: 0160 44bd 7f8f 7a3c 04f5 22bd e994 ad3c
00000350: 3ddc 553b 5da6 ca3c 0195 32bc 3856 a93b
00000360: bca1 27bd 6456 843d ef2a 8dbc 13a6 9dbd
00000370: 5a00 f7bc f086 01bd 3c1d d83d 2e38 85bc
00000380: 7662 af3d 8d8f 953b cf05 42bd 3852 ad3d
00000390: 573b aebd cc3c d13d 1ca9 813d e9d3 af3d
000003a0: 60ad 13bc d88b 3c3d 308b 91bc 92a3 aebc
000003b0: 8932 5abd 85a6 d73c c3bd efbc eec5 0abd
000003c0: ec82 47bd 1561 52bd 6623 44bd 69fc 08bd
000003d0: 5e70 89bd 99c8 93bd 0878 04bd 848f 28bc
000003e0: 20af 17bc 86ed 27bc 1caf 603d d5dc 43bd
000003f0: f83f 89bb 7c7f 92bd e3e8 413d e721 af3d
0.044101 -0.03687517 0.055403255 -0.089272775 -0.04395695 0.03950912 0.15320376 0.027398136
-0.017187795 -0.08152188 -0.010108292 0.050202865 -0.037344262 -0.0151400445 0.079172716 0.05312673
0.02353669 -0.0010687672 -0.06057977 -0.05124101 -0.007962607 0.039756894 0.089202285 -0.0066961944
-0.029095877 -0.00010112859 0.007875979 0.06390979 -0.01842603 -0.04925047 -0.03967306 -0.050209373
-0.006181154 -0.05589286 0.042918272 0.005651453 -0.06870787 -0.13694458 -0.055591896 0.027917404
-0.034480207 0.008381838 -0.049656387 0.03279548 -0.07231519 0.040333934 -0.003010613 -0.05724853
-0.005904166 -0.078674614 0.0056953286 0.031647947 -0.06027966 -0.0618051 -0.07463342 0.052753855
0.038037125 0.00591389 -0.035219025 -0.023523256 0.046825733 -0.037613593 0.02385896 -0.01571586
0.052920103 -0.061589003 0.029939778 -0.0202851 0.10273152 0.0035786089 0.04516102 -0.042248204
0.018119212 0.030350728 -0.025506442 0.008020716 0.016576692 0.036045305 -0.058486596 -0.06561336
-0.025456257 -0.116308995 -0.0005322639 -0.032276068 -0.09439651 0.039161377 -0.04246696 -0.001629899
-0.003931001 0.05586 -0.06391469 0.045517273 -0.102388375 -0.031401917 -0.04828932 -0.05343242
0.012897927 0.13194574 -0.04703814 -0.010688669 0.039990228 0.02098465 -0.001219719 -0.016170956
-0.006556049 -0.13832708 -0.04104564 0.0043555535 -0.01998814 0.038225707 -0.036634117 0.03841374
-0.059826694 -0.008790934 0.10617946 0.037446264 0.0010864644 -0.03298298 0.033079695 0.030356243
0.07957072 0.03578764 0.00024957093 0.036064066 0.0155549375 -0.07786256 -0.039862067 0.0061573484
-0.028630164 -0.056179125 0.047755554 -0.028071357 -0.05380076 0.02004039 -0.01855817 0.014311087
-0.04281492 0.08893367 -0.053029023 0.047545906 0.059785686 0.02988915 0.008505139 -0.019328916
0.005761304 0.08935501 -0.03461394 -0.03864352 -0.033630885 0.037360825 0.06687635 0.028046487
-0.016937204 -0.058531687 -0.10624257 0.044433225 0.05144622 -0.013944328 -0.04582376 -0.06622628
-0.015883977 -0.023238204 0.0012818689 0.060469653 0.016221521 -0.012239902 0.0069524148 -0.14546077
0.008927586 -0.026036624 -0.06345547 0.016954327 0.033708073 0.017875426 0.008498567 -0.02866858
0.00023676996 -0.010192637 -0.058075238 -0.015124358 -0.005221113 0.11214053 -0.07913746 -0.09187423
-0.017290898 -0.10147121 -0.05160528 0.002893316 0.048248738 -0.015751595 -0.025954522 -0.0040289043
0.039573245 0.020853175 -0.06713293 0.11131512 0.040998198 -0.0047335913 -0.06909098 -0.07341252
0.0062658233 -0.023875969 0.046801448 -0.010547324 0.1364162 -0.016956002 -0.07189116 0.056330655
-0.04794312 0.015293001 -0.039784446 0.02118917 0.0032632493 0.024737531 -0.010899783 0.005167749
-0.040925726 0.0646179 -0.017232386 -0.07697692 -0.030151535 -0.031622827 0.10552451 -0.01626214
0.08563702 0.0045642317 -0.04736882 0.084629476 -0.08507412 0.10216674 0.06331083 0.085853405
-0.009013504 0.046031803 -0.017766565 -0.02131823 -0.05327085 0.02632452 -0.02926529 -0.033880167
-0.04870884 -0.051362116 -0.04788532 -0.033443842 -0.067108855 -0.07215995 -0.032341033 -0.010288123
-0.009258062 -0.010249501 0.054854497 -0.047818024 -0.004188534 -0.07153222 0.04734124 0.08551388

bilstm.bias_ih_l0_reverse f4 [400]
00000000: b2c2 e33d 9716 4fbd 4472 d63d 3c39 09be
00000010: 3ea0 4e3e b279 18be 2661 233e 096c 57bd
00000020: 23e6 a43d 86b2 6cbd bb0c 93bd 1112 103e
00000030: eb15 4cbe 7b22 5f3e 9269 533e 9fdd 333e
00000040: 9c6c 903d 1d32 a9bc 5e89 033d df97 ccbd
00000050: 6f94 babc f783 433d 83c0 02be 5f57 e13d
00000060: c8dc 03bc 0f26 13bd 7bdf f3bd 5a82 a83e
00000070: 1d2c 86bd 2e59 493b cff6 b03c 69af 003d
00000080: 5154 71bd db86 cf3d 492e c5bc 598e 63bd
00000090: 7625 29bc 49c1 c3bd 2ba1 743d 967f 52be
000000a0: 7fa7 c63d fed9 913c 7d92 023e e97e 973d
000000b0: 5d7b df3c 694b ccbd 6569 c6bc ed9d d83d
000000c0: 41c8 d7bc 183f d03b 4a81 ecbd 327e 83bd
000000d0: d971 693e e6e1 d1bc 7395 a9bd 64db 623e
000000e0: a703 f23d 869e 35bd a415 93bc 9057 40bd
000000f0: 585d c53d bcc7 8f3e e72c 04bc 6955 d43d
00000100: 6d23 21bd b201 36bd 8b0e a73d 9c20 1d3e
00000110: 9aa0 2a3e 3cf0 083d cb80 98bc 9214 023e
00000120: e7a6 053c 2549 053e e8a1 acba 90a2 e2bd
00000130: 63a2 bc3c 9758 323d a162 3bbd c934 d73d
00000140: fc17 27be d79d 0abd 81bc d13d 8bad 0f3e
00000150: cdf1 143d 609e 873d e89b 403e f913 303e
00000160: 20dc 5fbd cdcc 0fbe e864 90bd 4866 9fbd
00000170: 9859 bbbd 98d5 b03d 5a71 e73d e6ff 8e3d
00000180: ef91 c9bd f1c5 463e 192c 683d 94e9 48bd
00000190: 0000 0000 0000 0000 0000 0000 0000 0000
000001a0: 0000 0000 0000 0000 0000 0000 0000 0000
000001b0: 0000 0000 0000 0000 0000 0000 0000 0000
000001c0: 0000 0000 0000 0000 0000 0000 0000 0000
000001d0: 0000 0000 0000 0000 0000 0000 0000 0000
000001e0: 0000 0000 0000 0000 0000 0000 0000 0000
000001f0: 0000 0000 0000 0000 0000 0000 0000 0000
00000200: 0000 0000 0000 0000 0000 0000 0000 0000
00000210: 0000 0000 0000 0000 0000 0000 0000 0000
00000220: 0000 0000 0000 0000 0000 0000 0000 0000
00000230: 0000 0000 0000 0000 0000 0000 0000 0000
00000240: 0000 0000 0000 0000 0000 0000 0000 0000
00000250: 0000 0000 0000 0000 0000 0000 0000 0000
00000260: 0000 0000 0000 0000 0000 0000 0000 0000
00000270: 0000 0000 0000 0000 0000 0000 0000 0000
00000280: 0000 0000 0000 0000 0000 0000 0000 0000
00000290: 0000 0000 0000 0000 0000 0000 0000 0000
000002a0: 0000 0000 0000 0000 0000 0000 0000 0000
000002b0: 0000 0000 0000 0000 0000 0000 0000 0000
000002c0: 0000 0000 0000 0000 0000 0000 0000 0000
000002d0: 0000 0000 0000 0000 0000 0000 0000 0000
000002e0: 0000 0000 0000 0000 0000 0000 0000 0000
000002f0: 0000 0000 0000 0000 0000 0000 0000 0000
00000300: 0000 0000 0000 0000 0000 0000 0000 0000
00000310: 0000 0000 0000 0000 0000 0000 0000 0000
00000320: a734 1b3d 5d44 31bb 77b0 ab3c c1ae f83c
00000330: 4ade 253b e490 aabb 5b89 e4bc bfbb 36bc
00000340: f862 403d b84e febc 3d6f 693c ba1a 1abd
00000350: a410 87bc 45c1 993b 0be3 82bd ab98 d83c
00000360: 22ba e8bc 6109 0e3d a004 41bd 884f ee3c
00000370: 43f5 553d e99b 0dbc d0e5 7f3c da53 903d
00000380: 81f3 17bd 09be bc3c 6884 303c 405b 47bc
00000390: 20b9 fd3c d0e0 e53c a971 6d3c 32e9 233d
000003a0: bab2 1b3c 3c88 fa3c b166 1abc e872 8e3b
000003b0: 0eef 133b cbe9 013c 9bb7 233d 3b0b 52bc
000003c0: ce69 023d 5449 203d 076e 6abd 0a61 c2bc
000003d0: a72e 393c e1dc 52bc 31a7 133d 647c 94bd
000003e0: 113e 8ebd a7bf 12bd 9089 bd3c 7e94 493b
000003f0: be56 023d aeb3 bfbc d137 8d3c 12c2 b93c
0.111211196 -0.050558653 0.10471013 -0.1340074 0.20178315 -0.14890173 0.15955028 -0.052593265
0.080517076 -0.05778744 -0.071801625 0.14069392 -0.19930236 0.21790497 0.2064574 0.1756501
0.070519656 -0.020653779 0.032113425 -0.099899046 -0.022775857 0.047733273 -0.1276875 0.11002993
-0.008048244 -0.035924967 -0.1190786 0.3291195 -0.06551383 0.0030723321 0.021602063 0.031417284
-0.0589183 0.101331435 -0.024069922 -0.055555675 -0.010323873 -0.095583506 0.059724014 -0.20556483
0.09699916 0.017804142 0.12751193 0.07397253 0.027280504 -0.09975321 -0.024220178 0.10576997
-0.026340606 0.0063551776 -0.115480974 -0.06420554 0.22797336 -0.025620412 -0.08280458 0.22154003
0.11817103 -0.044340633 -0.017954655 -0.046958506 0.096369445 0.28082073 -0.008067346 0.10367853
-0.039340425 -0.04443521 0.08157071 0.1534447 0.16662827 0.03343223 -0.0186161 0.1270316
0.008157468 0.13016184 -0.001317081 -0.110661626 0.02302665 0.043541517 -0.045748357 0.10508115
-0.16317743 -0.033841934 0.102410324 0.14031045 0.03636341 0.066220045 0.18809474 0.17195119
-0.054653287 -0.14042969 -0.07050496 -0.077831805 -0.09147948 0.0863449 0.11300917 0.069824025
-0.09842288 0.19411446 0.05668268 -0.049050882 0.0 0.0 0.0 0.0
0.0 0.0 0.0 0.0 0.0 0.0 0.0 0.0
0.0 0.0 0.0 0.0 0.0 0.0 0.0 0.0
0.0 0.0 0.0 0.0 0.0 0.0 0.0 0.0
0.0 0.0 0.0 0.0 0.0 0.0 0.0 0.0
0.0 0.0 0.0 0.0 0.0 0.0 0.0 0.0
0.0 0.0 0.0 0.0 0.0 0.0 0.0 0.0
0.0 0.0 0.0 0.0 0.0 0.0 0.0 0.0
0.0 0.0 0.0 0.0 0.0 0.0 0.0 0.0
0.0 0.0 0.0 0.0 0.0 0.0 0.0 0.0
0.0 0.0 0.0 0.0 0.0 0.0 0.0 0.0
0.0 0.0 0.0 0.0 0.0 0.0 0.0 0.0
0.0 0.0 0.0 0.0 0.0 0.0 0.0 0.0
0.03789201 -0.0027048804 0.020958168 0.030356767 0.0025309497 -0.0052052606 -0.027897527 -0.011153161
0.046969384 -0.031043395 0.014247713 -0.037623145 -0.016487427 0.004692229 -0.06390961 0.026439985
-0.028409068 0.034676913 -0.04712355 0.029090658 0.052235853 -0.008643129 0.015618756 0.070472434
-0.037097458 0.023039835 0.010773756 -0.012167752 0.030972064 0.0280613 0.014492431 0.040017314
0.009503061 0.03058254 -0.009423898 0.004347194 0.0022572908 0.007929276 0.03997002 -0.01282006
0.031839184 0.03913243 -0.057233837 -0.023727912 0.011302627 -0.012870044 0.036048118 -0.07250288
-0.06945432 -0.035827305 0.023136884 0.0030758674 0.031821005 -0.023401108 0.01723853 0.022675548

bilstm.bias_hh_l0_reverse f4 [400]
00000000: b2c2 e33d 9716 4fbd 4472 d63d 3c39 09be
00000010: 3ea0 4e3e b279 18be 2661 233e 096c 57bd
00000020: 23e6 a43d 86b2 6cbd bb0c 93bd 1112 103e
00000030: eb15 4cbe 7b22 5f3e 9269 533e 9fdd 333e
00000040: 9c6c 903d 1d32 a9bc 5e89 033d df97 ccbd
00000050: 6f94 babc f783 433d 83c0 02be 5f57 e13d
00000060: c8dc 03bc 0f26 13bd 7bdf f3bd 5a82 a83e
00000070: 1d2c 86bd 2e59 493b cff6 b03c 69af 003d
00000080: 5154 71bd db86 cf3d 492e c5bc 598e 63bd
00000090: 7625 29bc 49c1 c3bd 2ba1 743d 967f 52be
000000a0: 7fa7 c63d fed9 913c 7d92 023e e97e 973d
000000b0: 5d7b df3c 694b ccbd 6569 c6bc ed9d d83d
000000c0: 41c8 d7bc 183f d03b 4a81 ecbd 327e 83bd
000000d0: d971 693e e6e1 d1bc 7395 a9bd 64db 623e
000000e0: a703 f23d 869e 35bd a415 93bc 9057 40bd
000000f0: 585d c53d bcc7 8f3e e72c 04bc 6955 d43d
00000100: 6d23 21bd b201 36bd 8b0e a73d 9c20 1d3e
00000110: 9aa0 2a3e 3cf0 083d cb80 98bc 9214 023e
00000120: e7a6 053c 2549 053e e8a1 acba 90a2 e2bd
00000130: 63a2 bc3c 9758 323d a162 3bbd c934 d73d
00000140: fc17 27be d79d 0abd 81bc d13d 8bad 0f3e
00000150: cdf1 143d 609e 873d e89b 403e f913 303e
00000160: 20dc 5fbd cdcc 0fbe e864 90bd 4866 9fbd
00000170: 9859 bbbd 98d5 b03d 5a71 e73d e6ff 8e3d
00000180: ef91 c9bd f1c5 463e 192c 683d 94e9 48bd
00000190: 0000 0000 0000 0000 0000 0000 0000 0000
000001a0: 0000 0000 0000 0000 0000 0000 0000 0000
000001b0: 0000 0000 0000 0000 0000 0000 0000 0000
000001c0: 0000 0000 0000 0000 0000 0000 0000 0000
000001d0: 0000 0000 0000 0000 0000 0000 0000 0000
000001e0: 0000 0000 0000 0000 0000 0000 0000 0000
000001f0: 0000 0000 0000 0000 0000 0000 0000 0000
00000200: 0000 0000 0000 0000 0000 0000 0000 0000
00000210: 0000 0000 0000 0000 0000 0000 0000 0000
00000220: 0000 0000 0000 0000 0000 0000 0000 0000
00000230: 0000 0000 0000 0000 0000 0000 0000 0000
00000240: 0000 0000 0000 0000 0000 0000 0000 0000
00000250: 0000 0000 0000 0000 0000 0000 0000 0000
00000260: 0000 0000 0000 0000 0000 0000 0000 0000
00000270: 0000 0000 0000 0000 0000 0000 0000 0000
00000280: 0000 0000 0000 0000 0000 0000 0000 0000
00000290: 0000 0000 0000 0000 0000 0000 0000 0000
000002a0: 0000 0000 0000 0000 0000 0000 0000 0000
000002b0: 0000 0000 0000 0000 0000 0000 0000 0000
000002c0: 0000 0000 0000 0000 0000 0000 0000 0000
000002d0: 0000 0000 0000 0000 0000 0000 0000 0000
000002e0: 0000 0000 0000 0000 0000 0000 0000 0000
000002f0: 0000 0000 0000 0000 0000 0000 0000 0000
00000300: 0000 0000 0000 0000 0000 0000 0000 0000
00000310: 0000 0000 0000 0000 0000 0000 0000 0000
00000320: a734 1b3d 5d44 31bb 77b0 ab3c c1ae f83c
00000330: 4ade 253b e490 aabb 5b89 e4bc bfbb 36bc
00000340: f862 403d b84e febc 3d6f 693c ba1a 1abd
00000350: a410 87bc 45c1 993b 0be3 82bd ab98 d83c
00000360: 22ba e8bc 6109 0e3d a004 41bd 884f ee3c
00000370: 43f5 553d e99b 0dbc d0e5 7f3c da53 903d
00000380: 81f3 17bd 09be bc3c 6884 303c 405b 47bc
00000390: 20b9 fd3c d0e0 e53c a971 6d3c 32e9 233d
000003a0: bab2 1b3c 3c88 fa3c b166 1abc e872 8e3b
000003b0: 0eef 133b cbe9 013c 9bb7 233d 3b0b 52bc
000003c0: ce69 023d 5449 203d 076e 6abd 0a61 c2bc
000003d0: a72e 393c e1dc 52bc 31a7 133d 647c 94bd
000003e0: 113e 8ebd a7bf 12bd 9089 bd3c 7e94 493b
000003f0: be56 023d aeb3 bfbc d137 8d3c 12c2 b93c
0.111211196 -0.050558653 0.10471013 -0.1340074 0.20178315 -0.14890173 0.15955028 -0.052593265
0.080517076 -0.05778744 -0.071801625 0.14069392 -0.19930236 0.21790497 0.2064574 0.1756501
0.070519656 -0.020653779 0.032113425 -0.099899046 -0.022775857 0.047733273 -0.1276875 0.11002993
-0.008048244 -0.035924967 -0.1190786 0.3291195 -0.06551383 0.0030723321 0.021602063 0.031417284
-0.0589183 0.101331435 -0.024069922 -0.055555675 -0.010323873 -0.095583506 0.059724014 -0.20556483
0.09699916 0.017804142 0.12751193 0.07397253 0.027280504 -0.09975321 -0.024220178 0.10576997
-0.026340606 0.0063551776 -0.115480974 -0.06420554 0.22797336 -0.025620412 -0.08280458 0.22154003
0.11817103 -0.044340633 -0.017954655 -0.046958506 0.096369445 0.28082073 -0.008067346 0.10367853
-0.039340425 -0.04443521 0.08157071 0.1534447 0.16662827 0.03343223 -0.0186161 0.1270316
0.008157468 0.13016184 -0.001317081 -0.110661626 0.02302665 0.043541517 -0.045748357 0.10508115
-0.16317743 -0.033841934 0.102410324 0.14031045 0.03636341 0.066220045 0.18809474 0.17195119
-0.054653287 -0.14042969 -0.07050496 -0.077831805 -0.09147948 0.0863449 0.11300917 0.069824025
-0.09842288 0.19411446 0.05668268 -0.049050882 0.0 0.0 0.0 0.0
0.0 0.0 0.0 0.0 0.0 0.0 0.0 0.0
0.0 0.0 0.0 0.0 0.0 0.0 0.0 0.0
0.0 0.0 0.0 0.0 0.0 0.0 0.0 0.0
0.0 0.0 0.0 0.0 0.0 0.0 0.0 0.0
0.0 0.0 0.0 0.0 0.0 0.0 0.0 0.0
0.0 0.0 0.0 0.0 0.0 0.0 0.0 0.0
0.0 0.0 0.0 0.0 0.0 0.0 0.0 0.0
0.0 0.0 0.0 0.0 0.0 0.0 0.0 0.0
0.0 0.0 0.0 0.0 0.0 0.0 0.0 0.0
0.0 0.0 0.0 0.0 0.0 0.0 0.0 0.0
0.0 0.0 0.0 0.0 0.0 0.0 0.0 0.0
0.0 0.0 0.0 0.0 0.0 0.0 0.0 0.0
0.03789201 -0.0027048804 0.020958168 0.030356767 0.0025309497 -0.0052052606 -0.027897527 -0.011153161
0.046969384 -0.031043395 0.014247713 -0.037623145 -0.016487427 0.004692229 -0.06390961 0.026439985
-0.028409068 0.034676913 -0.04712355 0.029090658 0.052235853 -0.008643129 0.015618756 0.070472434
-0.037097458 0.023039835 0.010773756 -0.012167752 0.030972064 0.0280613 0.014492431 0.040017314
0.009503061 0.03058254 -0.009423898 0.004347194 0.0022572908 0.007929276 0.03997002 -0.01282006
0.031839184 0.03913243 -0.057233837 -0.023727912 0.011302627 -0.012870044 0.036048118 -0.07250288
-0.06945432 -0.035827305 0.023136884 0.0030758674 0.031821005 -0.023401108 0.01723853 0.022675548
