Test Inertial Network/imu_model_easy.pth (torch, 431522 bytes, 12 tensors)

bilstm.weight_ih_l0 f4 [400, 6]
00000000: b209 093e 8457 1f3f 53d0 0dbe f924 093f
00000010: 0002 633e 2b30 61be 0a1e c4bd 6597 29be
00000020: c45c 383d 0c33 c23d 7909 6abe 179a 92bc
00000030: 9170 74be 80d0 f9be 1205 09be e34b 24be
00000040: 9ad3 d73e 87a8 1c3e 0d6f ff3c 7d8a 9d3e
00000050: 48ab 61be 41c8 65be fa24 f03d 29fa b43d
00000060: 4be2 8e3e de78 04bf 8f01 b3be 5c40 41bf
00000070: b00e 8fbe a9ea 07bf ded4 c7bc ca33 7c3e
00000080: 0014 d3bd f5cb b43e 6193 a4be e212 83bd
00000090: 4940 f9bd d221 723e f2b1 2d3e 6021 18be
000000a0: 7282 dabe 9af0 9a3e e7f9 943e b643 033f
000000b0: 9fe0 80be 1976 d6bc 8563 75bf e425 493f
000000c0: 70ea e8bb 622f ae3e 7f39 e73e 15e3 c83e
000000d0: 4460 b5be f5bb 623d a37c 933d afb4 81be
000000e0: 9517 aa3d e71c c93e 590f 973d 3ce2 a9bd
000000f0: bb14 8dbd 7e37 943e 2510 91bd d65e 89be
00000100: 876f a63d f8f1 ca3d b940 d5be a5f9 06bf
00000110: b38e e3bc e8fd b5be acf5 44bf b3cd 27bd
00000120: fe2e 803e bb6c 7e3e 43d2 96be 48ea e2be
00000130: a24a 853e 4439 893c 0274 0a3d 88d0 26bf
00000140: a7d4 af3d 9c28 96be 88bb d6bd f0ef 21be
00000150: f405 363f 0ecc 9f3e c265 49bf 440c 0ebe
00000160: 7838 013e 45d6 763e 174f e43e f932 fdbe
00000170: 7f01 3c3e 3487 053e e5a2 00bd ed72 a13e
00000180: 9338 b0bd e6f3 353f 2c91 8a3e 65a3 9a3d
00000190: 7eae f3bb 059e 173f 6de4 c7be 60d3 ba3f
000001a0: f8d8 de3e 0260 883d 1a07 b2be 1575 003f
000001b0: f350 2cbe 9899 213f e6da 14be 608d 383f
000001c0: 570d 913d 234f a8be 7960 7cbd b148 f5be
000001d0: 558d 8fbe 6703 8f3e fc76 14be 56d5 adbe
000001e0: c66f 4cbd 91fd 35be 1155 043d 5318 a33f
000001f0: 19fb 523d c7df 25bd 2fab 473e 1449 31be
00000200: eb65 2fbe 915b a5be 26c3 28bc 2401 d0be
00000210: 498f ad3d 37f9 44be 7136 a03d 1a02 d9be
00000220: b8da 543e a35e bc3d 956a 7dbc c8e0 a43e
00000230: 5636 6f3e 8f19 403d 401a a1be e1f6 1fbc
00000240: 56af 5c3d 17e6 0fbe f19f 99bb e248 543d
00000250: ecae 1e3d 4daa 01be 00a9 82bd 1069 1abf
00000260: e6fc ba3d 42a4 babe ebce bb3d dd6b be3c
00000270: af85 0cbf f567 8abe da94 71bd 5fa3 b43e
00000280: a883 b23e 152d 83be f02a 8fbe 1a4c 213e
00000290: 2371 35be fab0 703e 77db 4f3e abf6 013e
000002a0: ac3f cabc 2acf 8f3e 3547 0d3d 9077 22bd
000002b0: cd88 cebd df26 cbbc 77d1 54bd b0f9 44be
000002c0: 8376 66bc 8dd6 d7bd b31d 903d f26a 2cbb
000002d0: 22cc 34be c279 c43d 67a2 123e c835 233f
000002e0: 7982 aabe ced9 a43e 62fc 83bd 4107 dcbd
000002f0: cd0c 553f 8256 633f fe11 60bf 5f05 d7be
00000300: 673b 773d b55c 1fbe 82c4 53be 945d 983e
00000310: 2255 3fb9 b654 08be b3d3 44be bc8b d1be
00000320: 0e61 c7bd fcc3 0d3c 13c7 d1bd e853 7fbe
00000330: bacd 8abe 24c8 083f 95fb 533e 6d11 823e
00000340: fa58 b53c e348 b3be 7f93 023e 0f5c 1ebd
00000350: 0d75 23bf 719c dfbd 61e5 4fbe ef80 d4bb
00000360: 3a06 fbbe 2541 ed3e 9838 66bd a504 ef3d
00000370: 52d1 bebd 6709 fcbe dd12 8bbc b008 a13e
00000380: b7b8 aabd 47a2 843f 7eff 50bf f471 c53e
00000390: 2356 503d 8493 d4be 78c8 72bd ed2b f5be
000003a0: ce3d 7c3e 8d06 133e c401 16bf b890 3b3e
000003b0: fa69 093e 4313 cd3e baaa f33d 6a51 de3d
000003c0: cea6 7d3c 0d47 683e 5df1 15bd 0400 a4be
000003d0: 2110 0a3f c557 11bc 5d68 0a3f 7e03 ea3c
000003e0: d0f0 153e 2709 a83e 4252 abbd 69de 933e
000003f0: 527c 793d 9a5b f8bd 0ca7 23be 4f56 f23c
0.13382605 0.62242913 -0.13849 0.5357204 0.22168732 -0.21991031 -0.09576042 -0.16561659
0.045010343 0.09482393 -0.22855176 -0.017895741 -0.23871066 -0.48791885 -0.1338084 -0.16044573
0.42153627 0.15298663 0.031180883 0.3076972 -0.22037995 -0.22439672 0.11725803 0.08836777
0.27907023 -0.5174693 -0.34962127 -0.7548883 -0.27940893 -0.5309244 -0.024393495 0.24629131
-0.10306549 0.35311857 -0.3214369 -0.06400086 -0.121704645 0.23645714 0.16962412 -0.14856482
-0.42677647 0.3026169 0.2909691 0.51275194 -0.25171372 -0.02617936 -0.9585498 0.7857344
-0.0071080253 0.34020525 0.45161054 0.3923575 -0.35425007 0.05535503 0.07201507 -0.25333163
0.08305279 0.39279863 0.07375974 -0.08295104 -0.0688872 0.28948587 -0.070831574 -0.26830167
0.08126741 0.09909433 -0.41650942 -0.5272468 -0.027778005 -0.35545278 -0.76937366 -0.040967654
0.25035852 0.24846165 -0.29457292 -0.44319367 0.26033503 0.01675094 0.03380204 -0.65161943
0.08585482 -0.29327857 -0.104849875 -0.15814185 0.71102834 0.3121037 -0.78670895 -0.13871866
0.12619197 0.24105175 0.4459159 -0.49452952 0.18359946 0.13039857 -0.03140535 0.31532994
-0.08604541 0.71075284 0.27063882 0.07550696 -0.0074365726 0.59225494 -0.39041463 1.4595757
0.4352491 0.06658937 -0.34771043 0.50178653 -0.16827755 0.6312499 -0.14536628 0.7209072
0.070826225 -0.32872877 -0.06161544 -0.47907022 -0.28037515 0.27932283 -0.14498514 -0.33951825
-0.049911283 -0.17772509 0.03230769 1.2741798 0.051508997 -0.040496614 0.19498895 -0.17313033
-0.17128722 -0.32296422 -0.010300433 -0.4062587 0.08474595 -0.19235693 0.07822884 -0.42384416
0.2078656 0.09197738 -0.015467306 0.32202744 0.23360571 0.046899375 -0.3146534 -0.00976345
0.05387815 -0.14052616 -0.004688256 0.05182732 0.038741037 -0.12662621 -0.063798904 -0.6031656
0.09130268 -0.36453444 0.09170326 0.023244793 -0.54891485 -0.27032438 -0.058979847 0.35280892
0.3486607 -0.25620332 -0.27962446 0.15751687 -0.1771894 0.23505011 0.20298563 0.12691753
-0.024688564 0.2808774 0.034491736 -0.039664805 -0.100846864 -0.024798809 -0.051957574 -0.19235873
-0.014066341 -0.10538969 0.07036915 -0.0026308862 -0.17655995 0.09593536 0.14319764 0.6375394
-0.33302668 0.32197422 -0.064446226 -0.10743571 0.8322266 0.88803875 -0.87527454 -0.41996285
0.060359385 -0.15562709 -0.2068043 0.29758894 -0.00018246894 -0.13313565 -0.19221382 -0.4092692
-0.097353086 0.008652683 -0.102430485 -0.24934351 -0.27110082 0.5343039 0.2070144 0.2540392
0.022137154 -0.35016546 0.12751578 -0.038662013 -0.6385048 -0.10918511 -0.20302345 -0.0064850966
-0.49028188 0.46338764 -0.056206316 0.11670808 -0.093172684 -0.49225923 -0.016976768 0.3145194
-0.08336013 1.0362023 -0.8163985 0.38563502 0.050863396 -0.41518795 -0.059273213 -0.47885075
0.24632952 0.14357968 -0.58596444 0.18316925 0.13419333 0.40053758 0.11897798 0.10855372
0.015481664 0.22683354 -0.036607135 -0.32031262 0.5393086 -0.008871024 0.54065496 0.028566118
0.14642644 0.32819483 -0.08365299 0.28880623 0.060909577 -0.121268466 -0.15981692 0.02958217

bilstm.weight_hh_l0 f4 [400, 100]
00000000: 04b4 95be af23 2cbf 8f1a cfbe e5b1 e23d
00000010: add0 9d3c 5d76 d93e d321 883e 0849 d9be
00000020: 4535 adbe 243d f83d b61a 243c 3554 483e
00000030: 3765 61bb 7793 473d 761b a73e a5a1 f63e
00000040: 0c83 183e 6c69 fdbe 3e80 f23d 502a f4be
00000050: ef50 a1be 8989 8f3e 2b79 8f3e bd5d 0cbe
00000060: 8c89 bcbe 95c3 15bf 912d 593e f6b2 cebe
00000070: 311b 44bb b06d 82bd ca24 06bd 55b9 4b3f
00000080: 1920 7e3d b5db 0d3f 22b2 9dbd cde9 0ebe
00000090: 1b76 823e 7d02 f53e 0f9a 8c3e e7bf 28bf
000000a0: 28ca 863e a17d 3abe 6079 6c3e 1ae3 523d
000000b0: 3602 38be 2982 0fbf e633 b5bd 0e95 213f
000000c0: 1b74 92be a0e7 783e 08d6 bb3e 513c e23c
000000d0: 450e 45be 3b1e b1be dbe5 f73d c8a3 603e
000000e0: 9c13 e73e eade 903e c59b 013f a39b b63e
000000f0: d0e7 1c3d 7074 48be eed2 a4be b784 d93e
00000100: 2b1d 65bc 62f2 8dbe fdc9 3b3e 150a 41bf
00000110: a897 093f c226 26bd e253 7d3e c634 523f
00000120: 407a 763e 3a4e 61be a905 05be f54a 6e3d
00000130: 78e1 b93d b73c 6e3e 890d 09be e70d 393e
00000140: 8e4a d8bc 1c7c a83e bb65 943d 90e6 aa3e
00000150: 356e debe be0c 903e b1da ae3e 1ff2 adbd
00000160: d2be 1a3e 41a4 aabd 7261 1d3e b609 913e
00000170: 7f3d 80be 938f 17bc 8342 6dbd 9970 babc
00000180: 2c61 ffbe ca0e 24bf a747 96bd 7127 07bf
00000190: 4519 6dbe 183b ea3d 9915 113e e03f 00bf
000001a0: 4366 d83d 67f5 c9bd 2d19 1dbd 6c90 703e
000001b0: 484a ca3d 214c 1b3f d43c 62bd b487 cd3e
000001c0: dfaf b3bd d4a5 053e c264 1c3e 0e16 ce3e
000001d0: 5234 d73d c989 7ebd e9f2 6fbe 30ad 84be
000001e0: f574 f3bd 34b3 08bf e4a4 6dbe d243 333e
000001f0: b793 b43d a905 f4bc 7aff f4be 0b15 f63c
00000200: 4ff3 763d 939d 2bbe 8c9e 663e 7ae0 743e
00000210: e44e 0ebf 0ff3 b4be 67bb b4bd 02d5 f63e
00000220: aa85 f2be 9898 7d3d b19e 8abe d497 5ebe
00000230: bae4 5ebe 4841 673d e242 c2be c200 d93d
00000240: 5bdb 62bd a7d3 543e 250e 3a3f 7a86 c03e
00000250: 6bf5 3d3e 0326 e3bc 9cec f8be d47e cabe
00000260: 0c38 fc3d f67c 3d3e e5b0 603e db19 14be
00000270: 3c24 30bf fc95 b1bc d683 17bf 3a0b 2e3e
00000280: 0f16 b73d 90e7 22be 87b5 2fbd 7e72 f83a
00000290: a3f6 1cbe b3e0 df3e 9506 09bf 265a 11be
000002a0: 94ed df3e 1af0 333e 4088 3d3f 7b02 003e
000002b0: 257e b53e 30f1 b53e 8ef0 f8bc aa00 f5be
000002c0: 11f4 a43d 21c4 70be 7491 5c3e 77e2 ed3e
000002d0: 6294 fa3b 2149 583d c6d0 ffbd bac7 0e3f
000002e0: 05ef 82bd 9002 0cbe 23a7 73be 4414 b7be
000002f0: a31f 433e 9637 3cbe 86ea e1bd 212c 1dbf
00000300: 1f20 0c3f ac6e 343e f627 f63d b474 693e
00000310: ae35 3ebe 0abf c3be c7fe d53d 8d2f 34be
00000320: a91f 743e 0386 103d 6e56 b23c 2c7c 143c
00000330: 5770 363e 908b 20bf 4903 0dbf a0df 23bd
00000340: 22c4 b53e 10bd ce3d f0e6 a2bc 9a25 8fbc
00000350: e0c3 363e 2b99 9dbd b7b4 343f d7b9 99be
00000360: f4fa 3fbe dcbb bb3d e4db 1fbf 8f14 23be
00000370: 0cd1 09bf 42db 7abd 1c7c 473e 3938 a0be
00000380: 1af1 b63e c740 98be 6944 6fbd 2860 bebd
00000390: 645c 9a3e 8eec ccbe ebc0 a33d c9e9 183e
000003a0: 93fb f53e 1cc9 85be c1fb 05be 1ab0 0e3e
000003b0: 83ba dbbe 2f08 80bd 2f13 85be a7a6 e73e
000003c0: 8c7d d9bd 8d50 f93e e777 673e e57c 2d3e
000003d0: 442f e73d cd2d 153e a98f 6f3d ff84 66bd
000003e0: cb1b 923e 9351 293c 347b d1be 5ead 163e
000003f0: a3fd 6d3e c4c5 c43c 99e2 c2bd fdb1 5dbe
-0.29238904 -0.6724195 -0.4044995 0.11069087 0.019264543 0.42473117 0.26588306 -0.4243853
-0.33829704 0.12121037 0.010016134 0.19563372 -0.0034392604 0.048724618 0.3263814 0.481702
0.1489374 -0.49494493 0.118408665 -0.47688532 -0.3150706 0.28034618 0.2802213 -0.13707633
-0.3682369 -0.5850156 0.21208788 -0.4037091 -0.0029923434 -0.063685775 -0.03274993 0.7957967
0.06204233 0.5541337 -0.07699992 -0.13956375 0.25480732 0.4785346 0.27461287 -0.6591782
0.26326108 -0.18211986 0.23093176 0.051486112 -0.17969593 -0.56057984 -0.088477895 0.63118064
-0.28604206 0.24307108 0.3668673 0.027616652 -0.19243725 -0.34593377 0.12104388 0.21937478
0.45132148 0.2829507 0.5062831 0.35665616 0.03830701 -0.19575667 -0.32192177 0.42484066
-0.013984005 -0.27723986 0.18338771 -0.7540601 0.53747034 -0.040564306 0.2473903 0.82111776
0.24070072 -0.22002497 -0.1299044 0.058176953 0.09076208 0.23265348 -0.1338407 0.1807171
-0.026402738 0.32907188 0.07245966 0.3337903 -0.43443456 0.28134722 0.34151223 -0.084934466
0.15111855 -0.0833211 0.15369204 0.2832772 -0.25046918 -0.009250539 -0.05792476 -0.022758769
-0.49878824 -0.64085066 -0.07337885 -0.5279456 -0.23154171 0.114370525 0.14168395 -0.50097466
0.1056638 -0.0986126 -0.038354088 0.23492593 0.09877449 0.6066304 -0.05523379 0.40142596
-0.08773779 0.1305154 0.15272811 0.402512 0.10508026 -0.06214312 -0.23432507 -0.25913382
-0.11887542 -0.5339844 -0.23207432 0.1750634 0.08817237 -0.029787855 -0.47851163 0.030039331
0.06029063 -0.16759329 0.22521418 0.23913756 -0.5558913 -0.3534169 -0.08824807 0.48209387
-0.47367603 0.061913103 -0.27074197 -0.21737605 -0.2176694 0.05645874 -0.37941653 0.10595848
-0.055384975 0.20783864 0.7267783 0.37602597 0.18550651 -0.027728086 -0.4861802 -0.39549887
0.123153776 0.185047 0.2194248 -0.14462988 -0.6880529 -0.021677963 -0.5918554 0.1699647
0.08939754 -0.15908647 -0.042897727 0.001895502 -0.1532846 0.4372612 -0.5352567 -0.14194545
0.43735945 0.1757206 0.74036026 0.12500946 0.35447803 0.35535574 -0.030388143 -0.4785207
0.080543645 -0.23512317 0.21539861 0.4646184 0.007647083 0.052804116 -0.12490992 0.5577351
-0.063932456 -0.13672853 -0.23794226 -0.3575765 0.19055037 -0.1838058 -0.1103106 -0.6139546
0.5473651 0.17620343 0.12019341 0.22798425 -0.18575165 -0.3823169 0.104489855 -0.17596264
0.23840202 0.035284054 0.021769729 0.009062808 0.17816292 -0.62712955 -0.5508314 -0.040008187
0.355012 0.100946546 -0.01988551 -0.017473985 0.17848158 -0.0769523 0.7058825 -0.30024597
-0.18748075 0.09166691 -0.624449 -0.15925811 -0.53834605 -0.061244257 0.19480938 -0.31292894
0.3573082 -0.2973692 -0.05841485 -0.09295684 0.30148613 -0.40024227 0.079957806 0.14932932
0.48043498 -0.26129997 -0.13084318 0.13934365 -0.42915735 -0.06251561 -0.25991198 0.45244333
-0.10619649 0.48694268 0.22604333 0.16942175 0.11288312 0.14568253 0.058486614 -0.05627918
0.2853683 0.01033439 -0.4091431 0.14714572 0.23241286 0.024020083 -0.09515876 -0.21649928

bilstm.bias_ih_l0 f4 [400]
00000000: 24e5 1bbe 14eb 7e3d bfc2 003d e728 dbbb
00000010: 000b 9c3d 9155 8f3d 26f6 4c3e 16a6 5c3d
00000020: 5433 cebc 5a22 f6bd 9863 6bbd 4296 d53d
00000030: a08e dbbd 5fb7 2abc 7e3b ed3c 1b0b 473d
00000040: 0c3d 2c3c fa19 6f3e c519 ea3d 5c01 a4bd
00000050: 3969 733d 6978 3abd 6eee 90bd 4c09 913d
00000060: fb7b d1bd 3ee3 d0bd fa75 473e 29ef 13be
00000070: 163d 3fbd 96c4 c0bc c539 f2bc 9e5a 1b3c
00000080: def3 eebc 01de 873d 299f 3bbd 4341 a93d
00000090: c743 283d 95be 213e 9f06 4ebc 6076 c03e
000000a0: 8cd8 493e 0315 03bd c280 443d 027f c3bd
000000b0: 6407 fdbd feeb e9bd ce9a 0c3e 1786 e13d
000000c0: 5df5 433e 895e f5bc a88d 893d 7a9b eabd
000000d0: 63a9 a43a 6785 fbbc 54b5 bfbc 59df 2abc
000000e0: 924f 8cbc 1424 84bc 13af 843e 388b a0bc
000000f0: 1614 b7bd 5be9 ff3b e2c5 aebc 6720 423e
00000100: 697f 7f3d b5de 5bbd 7ccb 213e 2326 b7bd
00000110: a407 153d 60bc 433c c008 94bd aeb7 283e
00000120: 81ac 073e 38d1 cdbc 8d8c 70bc b7d0 9c3d
00000130: b8b3 b9bc b715 0e3e 515b e6bc 3fd5 f7bc
00000140: 087f 093e cd57 edbd 9fff 5b3c 1cd3 e6bc
00000150: 58da a0bb 94d5 d6bd 1b5d 133d 1019 253e
00000160: acdf f63d d567 ff3d 6aae 9d3d 6ee9 023e
00000170: 9e47 8a3d 39f9 1bbd 6c17 2dbd 5363 c4bc
00000180: 1eea 123e a5bb f23b 9765 2abe 3a0c 1c3e
00000190: eb66 223c 1257 063c 29ee 9e3c 8d91 603c
000001a0: ff56 8c3d f61c 8c3d 051c 3ebc 7e81 d5bd
000001b0: 70e8 8ebc 1fec 1c3e eca9 a6bc 50a1 9f3d
000001c0: 5af7 3c3d f9bc bd3d 687c b93d 93e6 af3c
000001d0: 1c52 d0bc 7cc4 873e e13a b23d 4c34 a0bd
000001e0: 7e4f ea3d 2338 9b3d 2c96 cdbc 3b6f 9c3c
000001f0: 06ce 6ebd 2a88 353b 8d33 8c3e bf61 55bd
00000200: c47c 62bd 5889 dabc ea70 6ebd d878 ac3c
00000210: a4fc 543c 36d2 c8bd 0ee3 74bd 3631 1b3e
00000220: 49ab 983b ba2b 3e3e fc2e 49be f419 833e
00000230: 7efd 62bd 8081 f0bd 1906 453d baef 1a3c
00000240: 0e1d d5bc ffc1 0cbe 634a f73c 477d 8b3e
00000250: c6ea a93e 6bbb 8ebd eaea 963d b19e 1d3c
00000260: 4a0e cfbd 1f82 323d a052 083b 2b6f 9dbd
00000270: f686 e43c c2c8 bd3d 1c6b 493e 35d7 1e3d
00000280: 8591 853c f69a 0b3d e1f1 70bd 2395 1d3c
00000290: 894f a0bc c77e 5ebd 2cf8 e33d c5b5 3bbc
000002a0: 5abc a93d 30a8 823d 0eee 3abd 8633 8d3d
000002b0: 7be8 853e 70fe 53bc c863 503d b1f4 1dbe
000002c0: cf14 813b a73a 413d 1026 46bc d2fb ee3d
000002d0: 38d4 2f3e de7a d1bd 6035 7cbd a0b8 cdbc
000002e0: 44bc 823e 70b9 38bd 28df f73d b5fe 9bbc
000002f0: 9fe0 673e 127d ff3d f47a df3d 5ed2 223e
00000300: bac8 ac3d 6d1b cfbd a990 81bb dd9a 5bbd
00000310: 1be5 9f3c cd28 e33d 395c 08be a259 033e
00000320: 9543 603c 1549 89bc cda2 e83c 27c5 adbc
00000330: 826d 37bd 8578 5fbc b442 91bc 49d0 b43c
00000340: b7aa 55bb 266f 853b 003b db3c 7294 2dbd
00000350: b086 cdbb 321e 4b3d 448f 103c 709e b5bc
00000360: 6042 273d 32b5 e7bb e356 dc3c 4f22 2e3d
00000370: 3736 cd3c 9894 043d 67e3 89bd 7613 8a3d
00000380: 3816 093d bd9f f7bc 8634 93bc 9da9 63bd
00000390: 9e8e 2cbc e736 1fbc 1f05 05bd 932d a13c
000003a0: ca73 e2bc 058e 7b3c 4a4a 353c 7aaa cf3c
000003b0: 5947 443c 1d7d a4bc 4dfe 80bd 9910 57bd
000003c0: 04a7 ac3c cd15 aabc b0c7 aebb fc8f 823d
000003d0: bf69 803c ecfc 643d b238 d23c b0af a43d
000003e0: 47b6 3d3c 2b43 a23c 1c26 f6bc b59d 683c
000003f0: a455 2a3c 3d9c 2fbd 3ae0 b73c eb41 5cbd
-0.15224129 0.062235907 0.031435724 -0.0066882255 0.076192856 0.06998742 0.20015773 0.05386933
-0.02517096 -0.12018271 -0.057468027 0.1042905 -0.10720563 -0.010419696 0.028959032 0.048594575
0.010512602 0.23349753 0.114306964 -0.08008072 0.05942652 -0.04552499 -0.07076727 0.07081851
-0.102287255 -0.10199593 0.19478598 -0.14446701 -0.046689115 -0.02353124 -0.029568562 0.009482054
-0.02916902 0.06634141 -0.045806084 0.08264401 0.041080263 0.15795358 -0.012574821 0.37590313
0.19711512 -0.03200246 0.047974356 -0.09545709 -0.12354925 -0.11421965 0.13730928 0.11011904
0.19136567 -0.029952304 0.06716472 -0.11455436 0.0012562688 -0.03070326 -0.023401894 -0.010429227
-0.017127786 -0.016130485 0.2591482 -0.019597635 -0.08939378 0.0078098006 -0.021334592 0.18957673
0.062377367 -0.053679187 0.1580028 -0.08942821 0.03638424 0.011946768 -0.072282314 0.16476318
0.13249399 -0.025124177 -0.014681947 0.07656997 -0.022668704 0.13875471 -0.028119715 -0.03025305
0.13427365 -0.11589012 0.013427644 -0.028176837 -0.004908841 -0.104899555 0.035977464 0.16122842
0.12054381 0.12470976 0.076992825 0.12784359 0.06751941 -0.038079474 -0.042258665 -0.023973143
0.14347121 0.007407623 -0.16640316 0.15239039 0.009912233 0.00819947 0.019400673 0.013706577
0.06852531 0.06841461 -0.01160336 -0.10425089 -0.01744482 0.15324448 -0.020344697 0.0779444
0.04613433 0.09264559 0.09056932 0.021472251 -0.025429778 0.26517093 0.087026365 -0.07822475
0.11440943 0.075790666 -0.025096022 0.019096008 -0.058301948 0.0027699568 0.2738308 -0.05209517
-0.055294767 -0.026676819 -0.058213152 0.021053717 0.012999687 -0.098057196 -0.05978685 0.15155491
0.0046590907 0.18571368 -0.1964683 0.25605738 -0.05541753 -0.1174345 0.04810152 0.009456569
-0.02601483 -0.13745879 0.030186838 0.27244017 0.3318693 -0.06969341 0.07369025 0.0096203545
-0.10110147 0.043581124 0.0020801201 -0.07687219 0.027896386 0.09266807 0.19669765 0.038779456
0.01630474 0.03408333 -0.058824424 0.0096180765 -0.019569175 -0.054320123 0.111313194 -0.011456911
0.08287878 0.063797355 -0.045637183 0.06894593 0.2615393 -0.012939081 0.05087641 -0.15425374
0.003939248 0.047175076 -0.012094036 0.11669125 0.17170799 -0.10228513 -0.06157434 -0.02511245
0.2553426 -0.045098722 0.121031106 -0.019042352 0.2264428 0.12475027 0.10912123 0.15900561
0.08436723 -0.10112653 -0.0039540124 -0.053614486 0.019518426 0.110917665 -0.1331643 0.12827161
0.013687988 -0.016758481 0.028397942 -0.021212174 -0.04478217 -0.013639574 -0.017732002 0.022071974
-0.0032602975 0.004072088 0.026761532 -0.042377897 -0.0062721595 0.049589343 0.00882322 -0.022170275
0.040834785 -0.0070711607 0.0268969 0.042513188 0.025050266 0.032368273 -0.06732827 0.06741993
0.033468455 -0.030227536 -0.017969381 -0.055581678 -0.010532049 -0.00971768 -0.032475587 0.019675052
-0.027643103 0.015353684 0.011065075 0.025349844 0.011979901 -0.02007919 -0.06298504 -0.052506063
0.021075733 -0.020762349 -0.005333863 0.06375119 0.015675424 0.055905268 0.0256618 0.08041322
0.011579103 0.019807419 -0.030047469 0.014197757 0.010396395 -0.04287361 0.022445787 -0.0537738

bilstm.bias_hh_l0 f4 [400]
00000000: 24e5 1bbe 14eb 7e3d bfc2 003d e728 dbbb
00000010: 000b 9c3d 9155 8f3d 26f6 4c3e 16a6 5c3d
00000020: 5433 cebc 5a22 f6bd 9863 6bbd 4296 d53d
00000030: a08e dbbd 5fb7 2abc 7e3b ed3c 1b0b 473d
00000040: 0c3d 2c3c fa19 6f3e c519 ea3d 5c01 a4bd
00000050: 3969 733d 6978 3abd 6eee 90bd 4c09 913d
00000060: fb7b d1bd 3ee3 d0bd fa75 473e 29ef 13be
00000070: 163d 3fbd 96c4 c0bc c539 f2bc 9e5a 1b3c
00000080: def3 eebc 01de 873d 299f 3bbd 4341 a93d
00000090: c743 283d 95be 213e 9f06 4ebc 6076 c03e
000000a0: 8cd8 493e 0315 03bd c280 443d 027f c3bd
000000b0: 6407 fdbd feeb e9bd ce9a 0c3e 1786 e13d
000000c0: 5df5 433e 895e f5bc a88d 893d 7a9b eabd
000000d0: 63a9 a43a 6785 fbbc 54b5 bfbc 59df 2abc
000000e0: 924f 8cbc 1424 84bc 13af 843e 388b a0bc
000000f0: 1614 b7bd 5be9 ff3b e2c5 aebc 6720 423e
00000100: 697f 7f3d b5de 5bbd 7ccb 213e 2326 b7bd
00000110: a407 153d 60bc 433c c008 94bd aeb7 283e
00000120: 81ac 073e 38d1 cdbc 8d8c 70bc b7d0 9c3d
00000130: b8b3 b9bc b715 0e3e 515b e6bc 3fd5 f7bc
00000140: 087f 093e cd57 edbd 9fff 5b3c 1cd3 e6bc
00000150: 58da a0bb 94d5 d6bd 1b5d 133d 1019 253e
00000160: acdf f63d d567 ff3d 6aae 9d3d 6ee9 023e
00000170: 9e47 8a3d 39f9 1bbd 6c17 2dbd 5363 c4bc
00000180: 1eea 123e a5bb f23b 9765 2abe 3a0c 1c3e
00000190: eb66 223c 1257 063c 29ee 9e3c 8d91 603c
000001a0: ff56 8c3d f61c 8c3d 051c 3ebc 7e81 d5bd
000001b0: 70e8 8ebc 1fec 1c3e eca9 a6bc 50a1 9f3d
000001c0: 5af7 3c3d f9bc bd3d 687c b93d 93e6 af3c
000001d0: 1c52 d0bc 7cc4 873e e13a b23d 4c34 a0bd
000001e0: 7e4f ea3d 2338 9b3d 2c96 cdbc 3b6f 9c3c
000001f0: 06ce 6ebd 2a88 353b 8d33 8c3e bf61 55bd
00000200: c47c 62bd 5889 dabc ea70 6ebd d878 ac3c
00000210: a4fc 543c 36d2 c8bd 0ee3 74bd 3631 1b3e
00000220: 49ab 983b ba2b 3e3e fc2e 49be f419 833e
00000230: 7efd 62bd 8081 f0bd 1906 453d baef 1a3c
00000240: 0e1d d5bc ffc1 0cbe 634a f73c 477d 8b3e
00000250: c6ea a93e 6bbb 8ebd eaea 963d b19e 1d3c
00000260: 4a0e cfbd 1f82 323d a052 083b 2b6f 9dbd
00000270: f686 e43c c2c8 bd3d 1c6b 493e 35d7 1e3d
00000280: 8591 853c f69a 0b3d e1f1 70bd 2395 1d3c
00000290: 894f a0bc c77e 5ebd 2cf8 e33d c5b5 3bbc
000002a0: 5abc a93d 30a8 823d 0eee 3abd 8633 8d3d
000002b0: 7be8 853e 70fe 53bc c863 503d b1f4 1dbe
000002c0: cf14 813b a73a 413d 1026 46bc d2fb ee3d
000002d0: 38d4 2f3e de7a d1bd 6035 7cbd a0b8 cdbc
000002e0: 44bc 823e 70b9 38bd 28df f73d b5fe 9bbc
000002f0: 9fe0 673e 127d ff3d f47a df3d 5ed2 223e
00000300: bac8 ac3d 6d1b cfbd a990 81bb dd9a 5bbd
00000310: 1be5 9f3c cd28 e33d 395c 08be a259 033e
00000320: 9543 603c 1549 89bc cda2 e83c 27c5 adbc
00000330: 826d 37bd 8578 5fbc b442 91bc 49d0 b43c
00000340: b7aa 55bb 266f 853b 003b db3c 7294 2dbd
00000350: b086 cdbb 321e 4b3d 448f 103c 709e b5bc
00000360: 6042 273d 32b5 e7bb e356 dc3c 4f22 2e3d
00000370: 3736 cd3c 9894 043d 67e3 89bd 7613 8a3d
00000380: 3816 093d bd9f f7bc 8634 93bc 9da9 63bd
00000390: 9e8e 2cbc e736 1fbc 1f05 05bd 932d a13c
000003a0: ca73 e2bc 058e 7b3c 4a4a 353c 7aaa cf3c
000003b0: 5947 443c 1d7d a4bc 4dfe 80bd 9910 57bd
000003c0: 04a7 ac3c cd15 aabc b0c7 aebb fc8f 823d
000003d0: bf69 803c ecfc 643d b238 d23c b0af a43d
000003e0: 47b6 3d3c 2b43 a23c 1c26 f6bc b59d 683c
000003f0: a455 2a3c 3d9c 2fbd 3ae0 b73c eb41 5cbd
-0.15224129 0.062235907 0.031435724 -0.0066882255 0.076192856 0.06998742 0.20015773 0.05386933
-0.02517096 -0.12018271 -0.057468027 0.1042905 -0.10720563 -0.010419696 0.028959032 0.048594575
0.010512602 0.23349753 0.114306964 -0.08008072 0.05942652 -0.04552499 -0.07076727 0.07081851
-0.102287255 -0.10199593 0.19478598 -0.14446701 -0.046689115 -0.02353124 -0.029568562 0.009482054
-0.02916902 0.06634141 -0.045806084 0.08264401 0.041080263 0.15795358 -0.012574821 0.37590313
0.19711512 -0.03200246 0.047974356 -0.09545709 -0.12354925 -0.11421965 0.13730928 0.11011904
0.19136567 -0.029952304 0.06716472 -0.11455436 0.0012562688 -0.03070326 -0.023401894 -0.010429227
-0.017127786 -0.016130485 0.2591482 -0.019597635 -0.08939378 0.0078098006 -0.021334592 0.18957673
0.062377367 -0.053679187 0.1580028 -0.08942821 0.03638424 0.011946768 -0.072282314 0.16476318
0.13249399 -0.025124177 -0.014681947 0.07656997 -0.022668704 0.13875471 -0.028119715 -0.03025305
0.13427365 -0.11589012 0.013427644 -0.028176837 -0.004908841 -0.104899555 0.035977464 0.16122842
0.12054381 0.12470976 0.076992825 0.12784359 0.06751941 -0.038079474 -0.042258665 -0.023973143
0.14347121 0.007407623 -0.16640316 0.15239039 0.009912233 0.00819947 0.019400673 0.013706577
0.06852531 0.06841461 -0.01160336 -0.10425089 -0.01744482 0.15324448 -0.020344697 0.0779444
0.04613433 0.09264559 0.09056932 0.021472251 -0.025429778 0.26517093 0.087026365 -0.07822475
0.11440943 0.075790666 -0.025096022 0.019096008 -0.058301948 0.0027699568 0.2738308 -0.05209517
-0.055294767 -0.026676819 -0.058213152 0.021053717 0.012999687 -0.098057196 -0.05978685 0.15155491
0.0046590907 0.18571368 -0.1964683 0.25605738 -0.05541753 -0.1174345 0.04810152 0.009456569
-0.02601483 -0.13745879 0.030186838 0.27244017 0.3318693 -0.06969341 0.07369025 0.0096203545
-0.10110147 0.043581124 0.0020801201 -0.07687219 0.027896386 0.09266807 0.19669765 0.038779456
0.01630474 0.03408333 -0.058824424 0.0096180765 -0.019569175 -0.054320123 0.111313194 -0.011456911
0.08287878 0.063797355 -0.045637183 0.06894593 0.2615393 -0.012939081 0.05087641 -0.15425374
0.003939248 0.047175076 -0.012094036 0.11669125 0.17170799 -0.10228513 -0.06157434 -0.02511245
0.2553426 -0.045098722 0.121031106 -0.019042352 0.2264428 0.12475027 0.10912123 0.15900561
0.08436723 -0.10112653 -0.0039540124 -0.053614486 0.019518426 0.110917665 -0.1331643 0.12827161
0.013687988 -0.016758481 0.028397942 -0.021212174 -0.04478217 -0.013639574 -0.017732002 0.022071974
-0.0032602975 0.004072088 0.026761532 -0.042377897 -0.0062721595 0.049589343 0.00882322 -0.022170275
0.040834785 -0.0070711607 0.0268969 0.042513188 0.025050266 0.032368273 -0.06732827 0.06741993
0.033468455 -0.030227536 -0.017969381 -0.055581678 -0.010532049 -0.00971768 -0.032475587 0.019675052
-0.027643103 0.015353684 0.011065075 0.025349844 0.011979901 -0.02007919 -0.06298504 -0.052506063
0.021075733 -0.020762349 -0.005333863 0.06375119 0.015675424 0.055905268 0.0256618 0.08041322
0.011579103 0.019807419 -0.030047469 0.014197757 0.010396395 -0.04287361 0.022445787 -0.0537738

bilstm.weight_ih_l0_reverse f4 [400, 6]
00000000: 4ae3 b7be 25a3 813f 51df 1c3f 9730 91bf
00000010: cf74 b0be dacd 793f 456b 70bd 1acd 9dbc
00000020: b2d5 fcbd cec0 ed3b 4bdd 8fbe 3eb3 26be
00000030: a6d2 06bf a99f 4b3e a4c1 363f 465b c0be
00000040: b6ba f73c 9d33 8b3e 38f0 a53c c125 f1bd
00000050: 4421 443d e2a3 29be eaed 0fbe 2990 c0bc
00000060: 6823 dcbc 78af 70bc fe73 123e ff74 803e
00000070: 5a7b 61be 72ac fdbd 8b64 073e 0650 073f
00000080: 73b6 8abe d12a bf3e f688 dc3d b9d8 723e
00000090: 9221 7abd 9d46 a9be 9f8e a53d 68c9 663d
000000a0: 06b7 96be 3f72 3dbe 339e 73bf 33d2 aabe
000000b0: e198 a73f d9c2 b03e 3e28 7d3d 0fd0 d2be
000000c0: c5ff de3d 055b cebc 9ea8 243e 4266 a53d
000000d0: e998 063c f17c 323c 91c3 08bd fbf8 ddbd
000000e0: be96 1c3e 5619 e2be b506 543d c6e0 85be
000000f0: e8ff 05be 409d ab3d 4627 63be 78fa 2ebe
00000100: b606 5dbf 2ae5 443e a1fc 843c 56e7 aabe
00000110: 668a 4e3e d27a 173f c6d1 273f 20b5 8cbf
00000120: e210 3cbf 6222 5a3e 8fc1 cebe 714e a9be
00000130: cffc 8dbd 26b3 f83e 2420 87be b206 a7be
00000140: 9654 f3bd c2f9 983e 9770 eebe cb83 ac3e
00000150: f48d c2bd 560e 83be fe0a 25be 448e 9d3e
00000160: c777 e83e 7a3e 53bf f761 16be 5088 c93d
00000170: fe54 99be 14d2 74be e6b2 aa3e b977 ab3e
00000180: 516f f23e a674 22be bf18 6fbe 8349 6abe
00000190: aafb cdbe a348 1c3f 6535 373e f3da a3be
000001a0: 7f6e e5bd 3a80 95bc 0b7f b7be df79 c9bd
000001b0: 3d9b 823e ccd1 43bf 8a78 e2be a0b8 a43e
000001c0: 7548 55bf 63d9 acbb 1006 54bd a086 c5be
000001d0: dc87 6bbe bacc ebbe 5c9b d0be 7ee0 f43e
000001e0: 3e14 b33d 49cb c4be 2ee0 b63d 4433 c13d
000001f0: b6bf 1cbe 6e53 1cbe 3703 8ebd 5263 59be
00000200: 5d74 b1bc 0dcd c0bd d9c9 c5bd 7ce6 d4be
00000210: 43f8 4d3e 3fac 65be b0ff 84be 3550 0a3d
00000220: 331e 51bd b4fa 833d 72d0 cfbe f4fc 59bf
00000230: 6755 2ebf fbe1 ae3d 72a3 34bf f866 51be
00000240: ecde 50be 6ec9 553d e3c2 0ebe 31af afbe
00000250: b491 1cbf 418d 063e f16f c03c eaeb 33be
00000260: 0911 54be d432 ed3d ae30 bbbc 66ba 1d3e
00000270: cf36 95be 5423 173f 13cf e43d 4b60 683f
00000280: 276e fe3e 8e7a a8be 9fc5 9d3d 36ca 12be
00000290: 8b2a e3bc 1b45 08bd b904 21be daa4 863c
000002a0: f364 f53d 0404 b1be 191b 7fbc b0bc 9d3e
000002b0: 4916 32be 4a90 363e 80c2 87be 959b a4be
000002c0: 9a85 be3e 03ed 96bd 5ce9 53be b3a6 903e
000002d0: 9549 dfbd 8da9 c3be ac4f 0a3c 56fa b93d
000002e0: d664 743e f18a 5fbd 4b89 bc3b 5917 49be
000002f0: 9065 00be f4ef 26be 1540 41be 443c 14bf
00000300: 2167 8e3d e701 6abe 5869 483e 14f4 483d
00000310: 6d33 c7be 3a98 a03e d3bd e6be ac76 983f
00000320: 58d4 253f 2b89 773d 5f10 6d3d 69fc 41bf
00000330: 2c95 a9bd f412 0f3e 6e95 19be e197 15be
00000340: b9c7 91be 21fb 963d 480d 16bd d5f9 583e
00000350: 6398 513e edc1 393d d584 3b3e e480 023e
00000360: 3bfc fd3d 03ff aabd 0a6f e2bc 032f 213c
00000370: f74d c73c 6388 9ebe d5ed 82bf 48d9 dabc
00000380: 6aa1 133f 7f2c 1d3f 44ea 483d eba5 95bf
00000390: 1111 02bf ba79 043e 71ac 553e b9aa 8f3f
000003a0: 6ac4 9fbd 7d06 2bbf 95bd 25bf b4b0 5dbe
000003b0: 6edb 6f3f 3619 29bf be7f 063f fd2d 55bf
000003c0: fb1c aebe 2106 ad3e 0efb 673e 9f00 b53f
000003d0: 0ed2 93be 5a21 19bf f4ac 9e3e dc5b cb3d
000003e0: a203 18bf 8d09 493e 15ab 6cbe 8de8 903d
000003f0: 7005 0b3e 8fe9 b23b 4a69 96bd 76be e6bd
-0.35915595 1.0127913 0.61278254 -1.1342953 -0.34464118 0.9757973 -0.05869605 -0.01926284
-0.12345447 0.00725565 -0.2809852 -0.16279313 -0.52665174 0.19885124 0.7138922 -0.37569636
0.030240398 0.27187815 0.020256147 -0.11774779 0.047883287 -0.16566423 -0.14055601 -0.02350624
-0.026872352 -0.0146902725 0.1430206 0.2508926 -0.22019711 -0.12386407 0.13221948 0.5285648
-0.27092323 0.37337354 0.10768311 0.23715486 -0.06106717 -0.33061686 0.080838434 0.05634442
-0.2943651 -0.18500613 -0.9516327 -0.33363494 1.309353 0.34523657 0.061805956 -0.4117436
0.10888628 -0.025189886 0.16079947 0.08076145 0.008215168 0.010894046 -0.03338963 -0.10838505
0.15291879 -0.44159955 0.05176421 -0.2614805 -0.13085902 0.083796024 -0.2218295 -0.17087734
-0.86338365 0.19228044 0.016233744 -0.3337962 0.20169982 0.59171784 0.65554464 -1.0992775
-0.7346326 0.21302179 -0.40382048 -0.3306766 -0.06932985 0.4857418 -0.2639171 -0.32622296
-0.11881368 0.2987805 -0.46570274 0.336943 -0.09499732 -0.25596875 -0.16117474 0.30772603
0.45403883 -0.82517207 -0.14685808 0.09840453 -0.29947656 -0.23908263 0.33339614 0.3348978
0.47350553 -0.1586481 -0.23349284 -0.22879605 -0.40231067 0.61048335 0.17891462 -0.32002982
-0.11202716 -0.01824962 -0.35839114 -0.09837698 0.25509062 -0.76492 -0.4423259 0.32172108
-0.83313686 -0.005274938 -0.051763594 -0.38579273 -0.23001045 -0.4605463 -0.4074353 0.47827524
0.08744095 -0.38436344 0.08929478 0.09433606 -0.15307507 -0.15266201 -0.06934207 -0.21229294
-0.021661932 -0.0941411 -0.0965764 -0.41582096 0.20114236 -0.22428988 -0.25976324 0.033767898
-0.05105419 0.06444302 -0.4058872 -0.851516 -0.68099064 0.08539196 -0.705619 -0.20449436
-0.20397538 0.05219405 -0.13941531 -0.34313348 -0.61159825 0.13139822 0.023490878 -0.17570463
-0.20709623 0.1158196 -0.02285036 0.15403137 -0.29143378 0.5903828 0.11172309 0.9077193
0.49693415 -0.32906002 0.07703709 -0.1433495 -0.027730247 -0.03326903 -0.15724458 0.01643603
0.11982145 -0.34573376 -0.015570425 0.3080802 -0.17391314 0.1782848 -0.2651558 -0.3214995
0.37211305 -0.07369425 -0.20694488 0.2825218 -0.109027065 -0.38215294 0.008441847 0.09080951
0.23866591 -0.054575864 0.0057536713 -0.19637813 -0.12538743 -0.16302472 -0.18872102 -0.5790446
0.06953264 -0.22852288 0.19571435 0.049060896 -0.38906422 0.3136614 -0.450667 1.1911216
0.64777136 0.060433548 0.05787694 -0.7577577 -0.082804054 0.13972074 -0.14998409 -0.14608718
-0.2847269 0.07372118 -0.03663376 0.21189053 0.20468287 0.045350958 0.1831239 0.1274448
0.12401625 -0.08349421 -0.027640838 0.009837869 0.024329169 -0.3096343 -1.022883 -0.026714936
0.57668173 0.6139602 0.049051538 -1.1691259 -0.5080729 0.1293706 0.20866562 1.1223975
-0.07801135 -0.66806775 -0.64742404 -0.21649438 0.936942 -0.66054094 0.5253867 -0.832733
-0.34006485 0.33793738 0.22654364 1.4140815 -0.28871197 -0.59816515 0.30991328 0.0992963
-0.59380543 0.1963255 -0.23112138 0.070756055 0.13576293 0.0054599713 -0.07344301 -0.11266796

bilstm.weight_hh_l0_reverse f4 [400, 100]
00000000: 6057 0abd 1420 54bd d903 e0bd e84f 49bd
00000010: ca68 a4bd 2e2d e53c 6826 2f3c 3d7e 5abd
00000020: 2ec3 cd3c 1053 95bd 00ca 15bd 74af 71bd
00000030: 9b2e 0f3d b6a2 46be 1585 0c3d f8a0 6fbd
00000040: aa93 e5bc 268d bc3c a4f2 173c 3d6a 6ebd
00000050: 1708 883d c016 d9bb 99ac 2b3d d88b 59bd
00000060: 7d6b 38bd f7c6 52bd 747b dd3c 5c4f 873b
00000070: eaa0 17bd 190e 803d ccd3 2dbd ede1 ce3c
00000080: 41c1 20bd 4e19 43bd f365 a23b b2f4 933d
00000090: efda 88bd 1013 e8bc f150 5b3d 4105 25bc
000000a0: 1b83 8dbc 46c4 463c 171f ec3c e0cb 50bd
000000b0: 2f3d bcbc c005 ff3b 33e2 b03c 105d 95bd
000000c0: a9cf 68bd e659 ed3c 0162 be3d 5495 973c
000000d0: c6f9 c03c a17a 9ebd 511d 3b3d 3f3b 9abd
000000e0: 960a d4bd ee79 323c ef51 973d 9b2e 47bd
000000f0: 66b1 d1bc 1c4a 45bd 5f6c 0d3c be72 5cbb
00000100: fa06 64bd 2aef 8abb e048 ebbc 00da 2bbd
00000110: 4ea4 03be 16ac 1bbd e092 32bc 0034 88ba
00000120: a32c 88bd a073 00bd 7648 933d 13f5 96bc
00000130: 5ec0 893d c90c 10bd 396a dbbb d486 ae3c
00000140: 5ad1 473d 8478 fb3b 8f30 f23c fef5 82bd
00000150: a6ef 2fbd 74b1 a4bd ab32 05bd 0940 f4bb
00000160: aa2d 8bbd 8045 7bbb 8d24 0e3e 8c96 bbbd
00000170: 7129 9b3d dcd4 153d 4c25 133c 58e8 f33c
00000180: 639a 15bd 2ff6 5ebd 5011 2bbd a9ec 39bd
00000190: 187b cbbc 004e bb3c a562 493d d981 7f3d
000001a0: 4d1f 583d 7351 12bd 8ac5 40bd 4ae4 c8bc
000001b0: f489 383d ae22 5fbc e373 96bd 4879 c03b
000001c0: c7f0 6a3d 2f80 83bd 5ab3 053c b20c 833c
000001d0: b198 2dbd 10e1 6a3c 0b8e a4bb fb10 4b3d
000001e0: 2a2b 333d a3b7 633c c4a3 873d 8a5d 4c3d
000001f0: bb10 243d cc7d b0bd 3cf5 7dbc 1a59 443d
00000200: ce76 653d e793 e53c 24bf f33d fe93 b4bc
00000210: 7ab9 aabd 0125 373d d95d ca3b 14d0 dd3c
00000220: 113f 9e3d d7ca 42bd 686c 283d 2eab 8abd
00000230: fc57 9d3d cc84 33bc 97f3 81bc 92c7 883d
00000240: 5037 98bd 3def adbc eb7d 933d d3af c93c
00000250: cc7e bdbd fc93 ccbb 7053 7cbb c6f3 163d
00000260: ca7d a4bd b868 80bd 74bb a63c 3323 823c
00000270: 8220 22bd be82 343c 3c5b f3bc cafe 62bd
00000280: 3813 f93c 5a1b 1abc 3796 0e3d b93e 4f3c
00000290: d0c5 563c 36ba b9bc 155e a6bd 4a0f 783b
000002a0: 296b 93bd 4756 243d 39de fa3b 270b b5bc
000002b0: c90a 1e3d 85f7 613c a599 2abc 4d3e 803c
000002c0: dcf9 4f3c 3d33 34bc 6ab1 8a3d 26e5 a3bd
000002d0: d43c 673d f84d 5ebd 2382 5d3d ad8d 7f3d
000002e0: 176b 42bd 64bb 063e e1e6 8f3d 1dd1 383c
000002f0: c94d 3bbd 73e9 373d 589f febc f69a 513c
00000300: 63dd 36bd 0493 d0bc c791 b53d 5e65 343d
00000310: c0f3 7fbc 2ea4 04bd 73a2 e23b 3462 533d
00000320: 94d7 bc3c 3c75 6dbb 005d 473c 8a35 e63b
00000330: 964a 8bbc 8899 013d 2a60 08bb cbdb abbc
00000340: e7f8 50bd c79a 1a3d c2b6 c4bd ea35 5dbd
00000350: 505a b6bc 2cd9 04bd c499 423b dc4a 73bd
00000360: 303f 3abd 628b 06bd 4588 87bd ab54 89bd
00000370: fe8b 683c 03de a43d d5cd 873c 9354 4abd
00000380: fe5e 4bbd 7e66 033a a2d6 103d 6a74 093d
00000390: 4762 34ba ae90 063a 8aca a53a b177 ecbc
000003a0: fcba 45bd 0bc7 a1bd d27f 663c 2b41 68bd
000003b0: c581 aabc 6f98 d7bd b3b1 f13c 0f3d 37bc
000003c0: 6f62 6abd 3551 a3bc 0aae 27bd 26c0 f53b
000003d0: 16a6 23bc 76a4 00bd 0b5c f5bc 8a93 983d
000003e0: 6c49 503c 832e aebd 1dbe 203d 6912 7a3c
000003f0: bb03 943c ad38 c5bc 36e6 d63c 3d0b 163d
-0.033774734 -0.051788405 -0.10938234 -0.04914847 -0.080277994 0.027975645 0.010690309 -0.053343046
0.025117483 -0.072912335 -0.036569595 -0.059005216 0.034956556 -0.19398007 0.034306604 -0.05850312
-0.028024513 0.023016524 0.009274159 -0.058206785 0.06642168 -0.0066250265 0.04191265 -0.05311188
-0.045024384 -0.05145928 0.027036406 0.0041293334 -0.037018694 0.06252689 -0.042438313 0.025254214
-0.0392468 -0.047631554 0.004956001 0.07224406 -0.06682383 -0.028329402 0.05354399 -0.010072053
-0.01727443 0.012131756 0.028823419 -0.05097568 -0.022978393 0.007782668 0.021592235 -0.07293141
-0.056838665 0.028973531 0.092960365 0.018503822 0.023556601 -0.07738233 0.045682255 -0.075308315
-0.103535816 0.010893328 0.073886745 -0.04862843 -0.025597285 -0.04816638 0.008631795 -0.0033637728
-0.055670716 -0.0042399364 -0.028721273 -0.041955948 -0.12855646 -0.03800591 -0.010899276 -0.0010391474
-0.06649139 -0.03136027 0.07191555 -0.018427407 0.06726144 -0.035168443 -0.0066960123 0.021304525
0.048783638 0.0076742787 0.02956417 -0.063945755 -0.042953156 -0.08041659 -0.032519024 -0.0074539226
-0.06795819 -0.0038340986 0.1388113 -0.09159574 0.07576264 0.03657995 0.00898106 0.029773876
-0.036524188 -0.054433998 -0.041764557 -0.045391712 -0.02483897 0.022864342 0.04916634 0.06237969
0.052764226 -0.035722207 -0.047063388 -0.02452292 0.045053437 -0.013619108 -0.073463224 0.005873833
0.05735853 -0.064209335 0.0081604365 0.015997265 -0.042381946 0.014335886 -0.0050218157 0.04957674
0.043742336 0.013898763 0.06623033 0.049893893 0.040055018 -0.08617744 -0.015500363 0.047936536
0.056021504 0.028024627 0.119016916 -0.022043224 -0.08336158 0.044713024 0.0061757383 0.027076758
0.07726873 -0.047556724 0.04111901 -0.06770931 0.07682797 -0.010956954 -0.015863223 0.0667869
-0.07432425 -0.021232242 0.07201751 0.024619972 -0.092527 -0.006243227 -0.003850188 0.036853574
-0.08031805 -0.062699735 0.020353056 0.015885925 -0.039581783 0.0110174995 -0.02970659 -0.055418767
0.030404672 -0.009405935 0.034811225 0.012649232 0.013108686 -0.0226718 -0.081234135 0.003785091
-0.071981736 0.040121343 0.0076558855 -0.022100044 0.038584504 0.013791923 -0.010412608 0.015654707
0.012693848 -0.010998544 0.0677212 -0.08002691 0.056454495 -0.054273576 0.054079186 0.062390972
-0.04746541 0.13157421 0.070264585 0.011280325 -0.04572848 0.04490037 -0.03108184 0.012793293
-0.044644725 -0.025460728 0.088656954 0.044041984 -0.015622079 -0.032383136 0.006916338 0.051607326
0.023052014 -0.0036233207 0.012168169 0.0070254253 -0.017003339 0.03164056 -0.0020809271 -0.020978829
-0.05101862 0.037745263 -0.09605171 -0.054006495 -0.022259861 -0.032433674 0.0029693702 -0.059397563
-0.045470417 -0.03284777 -0.06617788 -0.06705602 0.014193533 0.08050158 0.01657764 -0.049397063
-0.04965114 0.0005012526 0.03536094 0.033558287 -0.00068810995 0.0005133253 0.0012648862 -0.028865667
-0.048274025 -0.078992926 0.014068561 -0.056702774 -0.020813832 -0.10527121 0.029503679 -0.011183991
-0.05722278 -0.019936183 -0.04093746 0.0074997125 -0.009988328 -0.031406842 -0.029951116 0.07450016
0.012712818 -0.08504965 0.039243806 0.015263178 0.018068185 -0.024074877 0.02623282 0.03663181

bilstm.bias_ih_l0_reverse f4 [400]
00000000: 248e e83c c6e3 1dbd 2617 7cbd 3fef 85bd
00000010: bd20 a6bd c473 d5b9 84cc 9fbd d919 483e
00000020: d5e1 f8bc eaed 63bd 626c c8bd 22a6 8a3d
00000030: df5a 2b3e edad 183d 5f49 60bd a700 0a3e
00000040: 52a6 d9bc d78f 50bd d6c1 76bd 8d97 00be
00000050: 622d 35bd 10af 9cbd 38a6 cabc f05f febd
00000060: 4cb8 81bd 090d 25be 756b 9e3d 062d 39bd
00000070: ed08 97bd 5091 b1bd ebfd 013d 7150 0bbd
00000080: ca63 6dbe 6cd0 3c3e 5e5e 8ebd ee75 03bc
00000090: f066 5bbd 796d 933e 6eba 3a3d 4fea 8f3e
000000a0: f0f5 953d 3d97 f3bd ce74 47bd 373c cfbd
000000b0: 1926 4f3b 8c10 d6bc 7185 0abd 94db dabb
000000c0: 981a 81bd c467 8dbc 9afa dbbc 8bd4 51bd
000000d0: 375f bd3b 5fef 1ebe befb 6dbd 0d46 4fbd
000000e0: c040 37bc 9907 5c3e 31e1 97bb 8555 90bd
000000f0: f70c 8cbd d14d 2e3d 782f 40bd f918 21be
00000100: 3cf9 90bd 9965 5cbd 4ab9 f7bb 7d52 a0bd
00000110: 5616 2c3e 3c0b b7bd 7f1b 9e3c ecbd 893d
00000120: cb33 d5bd 12f2 0fbd b3d7 07bd d99b 2a3c
00000130: 7d2e f2bd cbc7 d33a b964 0ebd 1617 763e
00000140: 0a59 0cbd 9eba acbd 9e10 8bbd 291b 67bd
00000150: 5c40 d8bc a002 9fbd aeae a8bc 8e8b e8bd
00000160: b2c0 78bd 8314 51bd 6ad4 51bd 46eb 653b
00000170: b8f4 313e a4c2 eebb 3b60 a9bd d8a8 afbd
00000180: b25d 6e3e 512b b7bc 9b7b 4dbd fd84 4fbd
00000190: 0000 0000 0000 0000 0000 0000 0000 0000
000001a0: 0000 0000 0000 0000 0000 0000 0000 0000
000001b0: 0000 0000 0000 0000 0000 0000 0000 0000
000001c0: 0000 0000 0000 0000 0000 0000 0000 0000
000001d0: 0000 0000 0000 0000 0000 0000 0000 0000
000001e0: 0000 0000 0000 0000 0000 0000 0000 0000
000001f0: 0000 0000 0000 0000 0000 0000 0000 0000
00000200: 0000 0000 0000 0000 0000 0000 0000 0000
00000210: 0000 0000 0000 0000 0000 0000 0000 0000
00000220: 0000 0000 0000 0000 0000 0000 0000 0000
00000230: 0000 0000 0000 0000 0000 0000 0000 0000
00000240: 0000 0000 0000 0000 0000 0000 0000 0000
00000250: 0000 0000 0000 0000 0000 0000 0000 0000
00000260: 0000 0000 0000 0000 0000 0000 0000 0000
00000270: 0000 0000 0000 0000 0000 0000 0000 0000
00000280: 0000 0000 0000 0000 0000 0000 0000 0000
00000290: 0000 0000 0000 0000 0000 0000 0000 0000
000002a0: 0000 0000 0000 0000 0000 0000 0000 0000
000002b0: 0000 0000 0000 0000 0000 0000 0000 0000
000002c0: 0000 0000 0000 0000 0000 0000 0000 0000
000002d0: 0000 0000 0000 0000 0000 0000 0000 0000
000002e0: 0000 0000 0000 0000 0000 0000 0000 0000
000002f0: 0000 0000 0000 0000 0000 0000 0000 0000
00000300: 0000 0000 0000 0000 0000 0000 0000 0000
00000310: 0000 0000 0000 0000 0000 0000 0000 0000
00000320: 219e 593c 5c50 a0bd ae3d 523d ee7a 8a3d
00000330: ed83 91bd ebf2 bcbc 9597 44bd 66fc 193d
00000340: 6527 863d ac2a 79bd 06ec 2bbd 2d66 6bbc
00000350: ee88 433d d13e febc b65c 7dbc f197 523b
00000360: d6f4 c23c 63e9 453d 0af4 09bd 62ec 9d3c
00000370: 44eb 703d d904 1ebd b05e 71bd a427 f3bc
00000380: 9bce 5a3d 7fec fe3b fa16 1c3c 71b5 7fbd
00000390: ad60 443d 15a9 bb3c 0f6b 2d3d 99a6 7abd
000003a0: ffe5 3e3c 9d1f 00bd d33e abbd 2e74 843d
000003b0: a827 623d 546a c53c 0b49 4f3d c411 8e3c
000003c0: 6645 c93d da87 07bd 3892 79bd 1b55 a7bc
000003d0: 04ad e8bc 790f 403d faba 953d e207 a8bd
000003e0: ca29 64bd fa09 a2bd 4023 60bc f721 8f3d
000003f0: dc53 9ebd 1458 99bb 5100 953d 05ef 72bd
0.02838809 -0.0385473 -0.061545514 -0.06539773 -0.08111713 -0.00040712778 -0.0780268 0.1954111
-0.030381123 -0.055646814 -0.097862974 0.067699686 0.16733883 0.037275244 -0.054757472 0.13476811
-0.026568566 -0.050918426 -0.06024345 -0.12557812 -0.044232734 -0.07650578 -0.024737462 -0.124206424
-0.0633398 -0.16118254 0.077353396 -0.045208953 -0.07374749 -0.08670294 0.031736296 -0.03401226
-0.23182598 0.18438882 -0.06951593 -0.008023722 -0.053564966 0.28794459 0.04558795 0.2810845
0.073222995 -0.11894081 -0.048695378 -0.10118907 0.0031608401 -0.026130937 -0.033818666 -0.006679008
-0.063039005 -0.017261393 -0.026852895 -0.051228087 0.0057791728 -0.15521 -0.05810141 -0.050603915
-0.011184871 0.21487273 -0.004634999 -0.070475616 -0.0683841 0.04255468 -0.04692027 -0.15732183
-0.07078788 -0.05380783 -0.00755993 -0.078282334 0.16805395 -0.0893769 0.01930022 0.06725678
-0.10410269 -0.035142966 -0.03316469 0.010413134 -0.11825273 0.0016157565 -0.034764025 0.24032244
-0.0342646 -0.08434032 -0.06790279 -0.056422386 -0.026397876 -0.077641726 -0.020591106 -0.11354743
-0.060730644 -0.051044952 -0.051227964 0.003508286 0.17378509 -0.0072863866 -0.08270308 -0.08577126
0.2327793 -0.022359522 -0.050166707 -0.050663937 0.0 0.0 0.0 0.0
0.0 0.0 0.0 0.0 0.0 0.0 0.0 0.0
0.0 0.0 0.0 0.0 0.0 0.0 0.0 0.0
0.0 0.0 0.0 0.0 0.0 0.0 0.0 0.0
0.0 0.0 0.0 0.0 0.0 0.0 0.0 0.0
0.0 0.0 0.0 0.0 0.0 0.0 0.0 0.0
0.0 0.0 0.0 0.0 0.0 0.0 0.0 0.0
0.0 0.0 0.0 0.0 0.0 0.0 0.0 0.0
0.0 0.0 0.0 0.0 0.0 0.0 0.0 0.0
0.0 0.0 0.0 0.0 0.0 0.0 0.0 0.0
0.0 0.0 0.0 0.0 0.0 0.0 0.0 0.0
0.0 0.0 0.0 0.0 0.0 0.0 0.0 0.0
0.0 0.0 0.0 0.0 0.0 0.0 0.0 0.0
0.01328233 -0.07827827 0.051328354 0.06761728 -0.07105241 -0.023065051 -0.047996122 0.03759422
0.06550483 -0.06083171 -0.041973136 -0.014367622 0.04773801 -0.031035813 -0.015463999 0.0032134021
0.023798387 0.048318278 -0.03368 0.019277755 0.058818117 -0.03857884 -0.05892819 -0.029681988
0.05341969 0.0077796574 0.009526962 -0.062428895 0.04794376 0.022907773 0.042338427 -0.061194036
0.011651515 -0.03128015 -0.08361592 0.06467472 0.0552136 0.024098553 0.05060677 0.017342456
0.0982769 -0.033088543 -0.06093046 -0.020426324 -0.028402813 0.046889756 0.073110536 -0.082046285
-0.055703916 -0.07912059 -0.013680279 0.069889 -0.07730839 -0.004679689 0.07275451 -0.059309978

bilstm.bias_hh_l0_reverse f4 [400]
00000000: 248e e83c c6e3 1dbd 2617 7cbd 3fef 85bd
00000010: bd20 a6bd c473 d5b9 84cc 9fbd d919 483e
00000020: d5e1 f8bc eaed 63bd 626c c8bd 22a6 8a3d
00000030: df5a 2b3e edad 183d 5f49 60bd a700 0a3e
00000040: 52a6 d9bc d78f 50bd d6c1 76bd 8d97 00be
00000050: 622d 35bd 10af 9cbd 38a6 cabc f05f febd
00000060: 4cb8 81bd 090d 25be 756b 9e3d 062d 39bd
00000070: ed08 97bd 5091 b1bd ebfd 013d 7150 0bbd
00000080: ca63 6dbe 6cd0 3c3e 5e5e 8ebd ee75 03bc
00000090: f066 5bbd 796d 933e 6eba 3a3d 4fea 8f3e
000000a0: f0f5 953d 3d97 f3bd ce74 47bd 373c cfbd
000000b0: 1926 4f3b 8c10 d6bc 7185 0abd 94db dabb
000000c0: 981a 81bd c467 8dbc 9afa dbbc 8bd4 51bd
000000d0: 375f bd3b 5fef 1ebe befb 6dbd 0d46 4fbd
000000e0: c040 37bc 9907 5c3e 31e1 97bb 8555 90bd
000000f0: f70c 8cbd d14d 2e3d 782f 40bd f918 21be
00000100: 3cf9 90bd 9965 5cbd 4ab9 f7bb 7d52 a0bd
00000110: 5616 2c3e 3c0b b7bd 7f1b 9e3c ecbd 893d
00000120: cb33 d5bd 12f2 0fbd b3d7 07bd d99b 2a3c
00000130: 7d2e f2bd cbc7 d33a b964 0ebd 1617 763e
00000140: 0a59 0cbd 9eba acbd 9e10 8bbd 291b 67bd
00000150: 5c40 d8bc a002 9fbd aeae a8bc 8e8b e8bd
00000160: b2c0 78bd 8314 51bd 6ad4 51bd 46eb 653b
00000170: b8f4 313e a4c2 eebb 3b60 a9bd d8a8 afbd
00000180: b25d 6e3e 512b b7bc 9b7b 4dbd fd84 4fbd
00000190: 0000 0000 0000 0000 0000 0000 0000 0000
000001a0: 0000 0000 0000 0000 0000 0000 0000 0000
000001b0: 0000 0000 0000 0000 0000 0000 0000 0000
000001c0: 0000 0000 0000 0000 0000 0000 0000 0000
000001d0: 0000 0000 0000 0000 0000 0000 0000 0000
000001e0: 0000 0000 0000 0000 0000 0000 0000 0000
000001f0: 0000 0000 0000 0000 0000 0000 0000 0000
00000200: 0000 0000 0000 0000 0000 0000 0000 0000
00000210: 0000 0000 0000 0000 0000 0000 0000 0000
00000220: 0000 0000 0000 0000 0000 0000 0000 0000
00000230: 0000 0000 0000 0000 0000 0000 0000 0000
00000240: 0000 0000 0000 0000 0000 0000 0000 0000
00000250: 0000 0000 0000 0000 0000 0000 0000 0000
00000260: 0000 0000 0000 0000 0000 0000 0000 0000
00000270: 0000 0000 0000 0000 0000 0000 0000 0000
00000280: 0000 0000 0000 0000 0000 0000 0000 0000
00000290: 0000 0000 0000 0000 0000 0000 0000 0000
000002a0: 0000 0000 0000 0000 0000 0000 0000 0000
000002b0: 0000 0000 0000 0000 0000 0000 0000 0000
000002c0: 0000 0000 0000 0000 0000 0000 0000 0000
000002d0: 0000 0000 0000 0000 0000 0000 0000 0000
000002e0: 0000 0000 0000 0000 0000 0000 0000 0000
000002f0: 0000 0000 0000 0000 0000 0000 0000 0000
00000300: 0000 0000 0000 0000 0000 0000 0000 0000
00000310: 0000 0000 0000 0000 0000 0000 0000 0000
00000320: 219e 593c 5c50 a0bd ae3d 523d ee7a 8a3d
00000330: ed83 91bd ebf2 bcbc 9597 44bd 66fc 193d
00000340: 6527 863d ac2a 79bd 06ec 2bbd 2d66 6bbc
00000350: ee88 433d d13e febc b65c 7dbc f197 523b
00000360: d6f4 c23c 63e9 453d 0af4 09bd 62ec 9d3c
00000370: 44eb 703d d904 1ebd b05e 71bd a427 f3bc
00000380: 9bce 5a3d 7fec fe3b fa16 1c3c 71b5 7fbd
00000390: ad60 443d 15a9 bb3c 0f6b 2d3d 99a6 7abd
000003a0: ffe5 3e3c 9d1f 00bd d33e abbd 2e74 843d
000003b0: a827 623d 546a c53c 0b49 4f3d c411 8e3c
000003c0: 6645 c93d da87 07bd 3892 79bd 1b55 a7bc
000003d0: 04ad e8bc 790f 403d faba 953d e207 a8bd
000003e0: ca29 64bd fa09 a2bd 4023 60bc f721 8f3d
000003f0: dc53 9ebd 1458 99bb 5100 953d 05ef 72bd
0.02838809 -0.0385473 -0.061545514 -0.06539773 -0.08111713 -0.00040712778 -0.0780268 0.1954111
-0.030381123 -0.055646814 -0.097862974 0.067699686 0.16733883 0.037275244 -0.054757472 0.13476811
-0.026568566 -0.050918426 -0.06024345 -0.12557812 -0.044232734 -0.07650578 -0.024737462 -0.124206424
-0.0633398 -0.16118254 0.077353396 -0.045208953 -0.07374749 -0.08670294 0.031736296 -0.03401226
-0.23182598 0.18438882 -0.06951593 -0.008023722 -0.053564966 0.28794459 0.04558795 0.2810845
0.073222995 -0.11894081 -0.048695378 -0.10118907 0.0031608401 -0.026130937 -0.033818666 -0.006679008
-0.063039005 -0.017261393 -0.026852895 -0.051228087 0.0057791728 -0.15521 -0.05810141 -0.050603915
-0.011184871 0.21487273 -0.004634999 -0.070475616 -0.0683841 0.04255468 -0.04692027 -0.15732183
-0.07078788 -0.05380783 -0.00755993 -0.078282334 0.16805395 -0.0893769 0.01930022 0.06725678
-0.10410269 -0.035142966 -0.03316469 0.010413134 -0.11825273 0.0016157565 -0.034764025 0.24032244
-0.0342646 -0.08434032 -0.06790279 -0.056422386 -0.026397876 -0.077641726 -0.020591106 -0.11354743
-0.060730644 -0.051044952 -0.051227964 0.003508286 0.17378509 -0.0072863866 -0.08270308 -0.08577126
0.2327793 -0.022359522 -0.050166707 -0.050663937 0.0 0.0 0.0 0.0
0.0 0.0 0.0 0.0 0.0 0.0 0.0 0.0
0.0 0.0 0.0 0.0 0.0 0.0 0.0 0.0
0.0 0.0 0.0 0.0 0.0 0.0 0.0 0.0
0.0 0.0 0.0 0.0 0.0 0.0 0.0 0.0
0.0 0.0 0.0 0.0 0.0 0.0 0.0 0.0
0.0 0.0 0.0 0.0 0.0 0.0 0.0 0.0
0.0 0.0 0.0 0.0 0.0 0.0 0.0 0.0
0.0 0.0 0.0 0.0 0.0 0.0 0.0 0.0
0.0 0.0 0.0 0.0 0.0 0.0 0.0 0.0
0.0 0.0 0.0 0.0 0.0 0.0 0.0 0.0
0.0 0.0 0.0 0.0 0.0 0.0 0.0 0.0
0.0 0.0 0.0 0.0 0.0 0.0 0.0 0.0
0.01328233 -0.07827827 0.051328354 0.06761728 -0.07105241 -0.023065051 -0.047996122 0.03759422
0.06550483 -0.06083171 -0.041973136 -0.014367622 0.04773801 -0.031035813 -0.015463999 0.0032134021
0.023798387 0.048318278 -0.03368 0.019277755 0.058818117 -0.03857884 -0.05892819 -0.029681988
0.05341969 0.0077796574 0.009526962 -0.062428895 0.04794376 0.022907773 0.042338427 -0.061194036
0.011651515 -0.03128015 -0.08361592 0.06467472 0.0552136 0.024098553 0.05060677 0.017342456
0.0982769 -0.033088543 -0.06093046 -0.020426324 -0.028402813 0.046889756 0.073110536 -0.082046285
-0.055703916 -0.07912059 -0.013680279 0.069889 -0.07730839 -0.004679689 0.07275451 -0.059309978
